test/tests/utils/libtorch_nn/torch_script/my_net.pt (torch, 10969 bytes, 6 tensors)

weight f8 [16, 3]
0	0xbfe161378dc4aafe	-0.5431173104201148
1	0x3f4adbdc4d478c3a	0.0008196664517153903
2	0x3f52e1cb5405b5ec	0.0011524663569518713
3	0xbfd9ad65b2780681	-0.4012083285198074
4	0xbf8d777d482c3ec0	-0.014388064160385183
5	0xbfe010cc7c3f3924	-0.5020506312082813
6	0x3f5c5e923dbbdb3a	0.0017315319191177473
7	0x3f99485c2404213b	0.024690093706369636
8	0x3ff1d6dcf4b4930b	1.1149568136981454
9	0xbfcc7723f4246814	-0.22238587780958652
10	0xbfe1d21d217515d4	-0.5568986562217852
11	0xbfa8d181eb0895c0	-0.04847341531812388
12	0x3fccd3fc73467f70	0.2252193034046246
13	0xbfe499e80a2500b9	-0.6437874029288856
14	0x3fe691047c96f315	0.7052023347274338
15	0xbfd94c82500200d1	-0.39529474080337673
16	0xbfb66ede039dc984	-0.08762919987001366
17	0xbfda92f1ec288e88	-0.41521881162973573
18	0xbfd4dfbaf7dddec1	-0.32615541654329766
19	0xbfdf970b7dbbe63b	-0.49359404829701575
20	0xbfb02a17afa3c5e8	-0.06314228094176821
21	0xbfdcbd4eec2bec94	-0.4490544611323426
22	0xbfd6dde0e3be31ca	-0.3572923873951167
23	0xbfdb9763a33da541	-0.4311150640629258
24	0x3f87d57636f1877a	0.011637614776365036
25	0x3fad5a688160f09a	0.057330385011000476
26	0xbff74adb7722f617	-1.4557757047435922
27	0x3fed626837f3ca37	0.9182625859087413
28	0xbf5686e26c1ce0dc	-0.0013749323993135698
29	0xbf4cf7fcbc587bef	-0.0008840545712621698
30	0x3fc2c21418251e6b	0.14654780558543065
31	0xbffeb393977a7138	-1.9188419263001162
32	0xbf9e6163e0a318a8	-0.02966838892532367
33	0xbfecc505a04cc4af	-0.8990505343300778
34	0x3f7b4554287dbdd8	0.006657913916441292
35	0x3f5343f4bf6dbfe0	0.0011758699526715974
36	0x3f8ebbecde1d4fbd	0.015006876495739502
37	0xbffdba1abb550239	-1.8579356496485515
38	0xbf95d532350f1613	-0.021321091164074057
39	0x3fdbbe2fc0b77a81	0.4334830648421431
40	0x3fe7734d3bda337e	0.7328249138823677
41	0xbfa14a80c92a6df2	-0.0337715383113525
42	0xbfe082566e0dc084	-0.515910353611631
43	0x3febd6b1489be343	0.8699575822966853
44	0xbfa6a0c8df4a8977	-0.0441954395839898
45	0x3f9ce7db3c3e30d6	0.028228211929261025
46	0x3f8df6f2c4146052	0.014631172760843612
47	0xbffc3b6f046a92b4	-1.7645101711761244

bias f8 [16]
0	0x3fd161447c1ff458	0.27156173821987784
1	0xbfce2cb209eade24	-0.23573899730921355
2	0xbfe1c76286d306e1	-0.5555889733588765
3	0xbfd9c371351a788c	-0.40255384622458545
4	0x3ff15dbc4e7c8935	1.0853846612813645
5	0xbf95a451769c5880	-0.021134636749672087
6	0xbfd006cd147a2378	-0.25041510581700477
7	0xbfd692f8e52beea0	-0.35272047405281093
8	0x3fe4f0cafee6ba66	0.654393670896593
9	0xbfdd6709849d586c	-0.459413890367961
10	0x3fd80c7dab346ec1	0.37576238364429676
11	0x3fdcbf189bb9da99	0.44916358192078004
12	0x3fec884215dc3eff	0.8916330744704907
13	0xbfd019dfdc8d14d3	-0.251579251653607
14	0x3fcec8ea44c96380	0.24050644263004628
15	0x3fd88902d7ac3f52	0.38336249410439394

weight f8 [8, 16]
0	0x3fc615fa192efbcf	0.1725456831900076
1	0xbfa97888f0417dc8	-0.049747733429053975
2	0x3fa269d30baf8a7c	0.03596362607620038
3	0x3fc51912fc6a0b07	0.16482770275987255
4	0xbfad5224ca0bbdf0	-0.057267331756403084
5	0xbfaacdd153ca7af0	-0.052351514318834336
6	0x3fc5ed7cb1751b67	0.17131003060259362
7	0x3fc6c0a3267d9cc7	0.17775382403781334
8	0xbfbec7a589e4a4f8	-0.1202338658955745
9	0x3fca7f47de968d47	0.20700929993209113
10	0xbfcc04a8f87c1be1	-0.21889221318289656
11	0x3fc595505d530ad7	0.16861919934134192
12	0xbfcbe4865ee7d633	-0.21791152605116934
13	0x3fbdc9b659764df6	0.11635913547643625
14	0x3fab07b272a0ec84	0.05279309891963016
15	0xbfb4434fa199da84	-0.0791520852597874
16	0xbfcbe4107acb204e	-0.21789747234129425
17	0x3fc5ed201f0d8a89	0.17129899517302175
18	0x3f81c8edf9dbc210	0.008684024036001353
19	0x3fc1ed71fabe8007	0.14005875342718374
20	0xbfcf2cc81704ff00	-0.2435541260147076
21	0xbf80344920556bc0	-0.007912226962323632
22	0xbfc6ad7d9e49ddc6	-0.17716951588566426
23	0x3fcfd158faf6d103	0.2485762811098838
24	0xbfcd7813c5b9b1f6	-0.2302269664245526
25	0x3fc1539cee1d960d	0.13536416651474817
26	0x3fa66d2b6f80569c	0.043801648484231154
27	0x3fc73725371873e5	0.1813704031964384
28	0x3fb21a7cc5e20186	0.07071666556476516
29	0x3fc14f8f3e2c8421	0.13524046455225494
30	0xbf9f8b4f52ce564d	-0.03080486243160001
31	0xbfa5360338c8ad77	-0.04142770832217029
32	0x3fd213b89e71ca68	0.28245368455023945
33	0xbfc4a5d881d72e7c	-0.16131121005888704
34	0x3ff4b819ccf4fb50	1.2949464803820838
35	0xbfac515ad68e12b0	-0.05530818814353233
36	0xbfdc8b89efc5dda0	-0.44601677337001355
37	0x3fce46b5b33a2493	0.23653289080929038
38	0xbfbad97abd716cd8	-0.10488097310137634
39	0x3fa8190e42823404	0.04706615983841547
40	0x3fe91ba3d5db6d0e	0.7846240212342381
41	0x3ff627e6a6ef4d1a	1.3847414513482534
42	0xbff24601e7c2425a	-1.1420916607932186
43	0x3fdde6e5ba267ec2	0.46721785715815767
44	0x3ff5ef84b9868c2e	1.3709761855213958
45	0x3fc5d0861e3e4b1b	0.17042614437794942
46	0x3fe2cdb5483237c9	0.5876108560639689
47	0xbff332d31f351bc4	-1.1999083727875908
48	0x3fd01d91b803fa99	0.2518047616030486
49	0xbfb8878073558968	-0.09581759277128798
50	0x3ff5a70ccc4c378a	1.3532836895351203
51	0x3f9dc76c23248b48	0.0290810486268456
52	0xbfe0dbfa63de254e	-0.5268527937452434
53	0x3fac05f1388803ac	0.05473283591346187
54	0xbfbbf7e9cab86fe4	-0.10925160598020472
55	0xbfcd4bd33e655185	-0.2288765005747672
56	0x3fe3690ec48ac629	0.6065744246208783
57	0x3ff3de0f0e04f3df	1.2417135760908804
58	0xbfdad6c734257830	-0.4193590172998283
59	0x3fe3f276436a7c7d	0.6233474079816826
60	0x3ff280ac106fc3f9	1.156414093213469
61	0x3fdae2227d5e3829	0.42005216830227937
62	0x3fe0e94ecfbc3375	0.5284799630477283
63	0x3fb81365f7351f36	0.0940459946187929
64	0xbfb31eafb660e04c	-0.07468698694799619
65	0xbfa964f0af8a4f18	-0.049598237446075
66	0xbfcd2458cf7f3013	-0.22767171985322018
67	0x3fc1474fcabe5635	0.13498875999055007
68	0xbfb8eada11379354	-0.0973335544618526
69	0x3f6450587d9de340	0.0024797180494115223
70	0x3fc7f669d71464e7	0.18720744134842635
71	0xbfc7c56e399da908	-0.18571260274195134
72	0xbfcfe2fa2cf6a021	-0.24911429591634351
73	0xbfc9e941132c53f9	-0.20243085323514245
74	0x3f7b674c38b9d6a0	0.0066903092771234685
75	0x3fc492556a50532d	0.16071574870206842
76	0xbfccfe5e4240a189	-0.22651270136817583
77	0x3fc7e623e2f1f4c5	0.18671082097345085
78	0xbfa92f191f169c08	-0.04918745522018503
79	0x3fb8bd76d7f89366	0.09664099476556273
80	0x3fad514df50d0690	0.05726092926353232
81	0x3fb33a45c8588fee	0.07510791913279011
82	0x3ff5f2113f33d1fe	1.371598479160752
83	0xbf8c9f5597a07020	-0.013975781144886013
84	0xbfe3fc5438f6323d	-0.6245518791707309
85	0x3fb33ac48e9de46e	0.07511547548155459
86	0x3fae44773d9b7b2c	0.059116102476528404
87	0x3fc660654b4fc7c1	0.17481676270796068
88	0x3fe819701d320cfb	0.7531052179550949
89	0x3ff48a762daac134	1.2838041099422073
90	0xbfdd6f261fc143f4	-0.45990899182385125
91	0x3fe357d6dfbfcd3c	0.6044725771047648
92	0x3ff55f4307f9c7b6	1.3357572852660105
93	0x3fc4621eb40621e8	0.1592443827651231
94	0x3fd9e19134318850	0.4043925294591917
95	0xbfe88525784549d3	-0.7662532185589107
96	0xbfb6b3e95a363308	-0.08868273212847211
97	0xbf93c9cd93822a10	-0.019324504974557455
98	0xbfb1637c303113ec	-0.06792427231364656
99	0x3fc11d017533ad4d	0.133697683551285
100	0x3fa067e93aa59cf4	0.03204277840523587
101	0xbfc837d1328d8bb9	-0.18920340507892577
102	0x3fc2dd6578a6365f	0.14738148108556268
103	0xbfc1800d1a20c9a4	-0.13672031188759803
104	0xbfcac423fdf8cfb9	-0.2091107359025253
105	0xbfb96af908a096fc	-0.09928852520587478
106	0x3f9d6d996a0dced8	0.028738400552767412
107	0xbfc1657670d77186	-0.13590889463274552
108	0xbfc4d4bfa8abfc30	-0.16274257408073955
109	0xbfc7d04af5dbd46a	-0.18604409222431012
110	0x3fc05d7366e4bcfd	0.12785189174744707
111	0xbfc3eabfc3135e16	-0.15560147309473454
112	0x3fc9bb5ad3ca1a65	0.2010301145675896
113	0x3fbe27b8d613366e	0.11779360987130769
114	0x3ffba9271c4b0190	1.7287970643229507
115	0xbfc6215b0659b270	-0.17289293108059978
116	0xbfeb61641e5dd7af	-0.8556385605904689
117	0xbfbb14ba21d336f4	-0.10578502012068808
118	0x3fcbb96183d6cfe9	0.21659487664658109
119	0xbfcc7cb8505ae011	-0.22255615161498146
120	0x3fdba52cd25a2c58	0.4319564871045194
121	0x3ff5f93138fe79c3	1.3733379579858684
122	0x3fcabdf76c7013f1	0.20892231745543158
123	0x3ff048e9dccd1af2	1.0178011536642626
124	0x3ff303bdabf16566	1.1884133068582172
125	0x3fe1293277c4912d	0.5362789477553968
126	0x3fd1f54c0600f535	0.28059673868468177
127	0x3fd0cba68513296b	0.26242983813849347

bias f8 [8]
0	0xbfcc7631fa6f2f2c	-0.22235703209150282
1	0x3fa953fc6d01ef23	0.04946888762148507
2	0xbfca592cc7d2df86	-0.2058464027120374
3	0xbfdee1ea10eda427	-0.4825387158694547
4	0xbf9a44bff7b22ce0	-0.025652884953655142
5	0xbfd1d962687d3ccf	-0.2788930912401612
6	0xbfcecd789dd2d252	-0.2406454821226754
7	0xbfe0521b34553fcf	-0.5100227377060892

weight f8 [1, 8]
0	0xbfd2a7f55548ce84	-0.29150136307291796
1	0xbfc17e50ac63b850	-0.13666733186204505
2	0x3ff9990ea2d06938	1.5998674735952374
3	0x4001b3841eabd369	2.2126543422877387
4	0x3fd1a632f62d0329	0.2757689861355624
5	0x40065f5a01a74270	2.7965583924454265
6	0xbfd59f86974bc395	-0.3378616788386862
7	0x40110edeacfac4c1	4.264521315389346

bias f8 [1]
0	0x3fa6f532357cad0b	0.04483944800298375
