modules/solid_mechanics/data/libtorch/test/thermal_conductivity_model.pt (torch, 20958 bytes, 10 tensors)

weight f8 [10, 1]
1.0509703016387792 0.9344312805504125 -0.46260808038262813 1.028689601355043 -0.6872905259064276 -0.5005690226976295 0.2853614521715629 0.8008599305415961
-0.6467268817314713 1.0098468605513782
00000000: 68b1 293c c6d0 f03f 7a59 ca6d dce6 ed3f
00000010: 62f5 06ec 5e9b ddbf 0ce2 383a 8375 f03f
00000020: c7cc 73b3 48fe e5bf 6310 bc53 a904 e0bf
00000030: 696b 27ae 5c43 d23f ab4b 4b01 a5a0 e93f
00000040: 2262 cf92 fcb1 e4bf 4495 802e 5528 f03f

bias f8 [10]
-0.5996963163484473 0.29637078828295577 -0.6171076344257989 -0.4079791888361648 -0.4779665329936441 -0.14472281093735975 0.8067203418964133 0.7162936189000124
0.23978061469555803 0.0615006686969188
00000000: adf1 4754 b630 e3bf ef8f ca2e bdf7 d23f
00000010: 3810 7f82 58bf e3bf f4fe 5fbe 541c dabf
00000020: be92 f2f0 0097 debf 0107 fbed 4686 c2bf
00000030: 2cd1 ae2d a7d0 e93f 104a 7098 e0eb e63f
00000040: 7d85 2a95 21b1 ce3f fb85 7801 047d af3f

weight f8 [20, 10]
0.1689870924666406 0.4177382131103415 0.10516875688728362 0.45022584872420224 -0.1345056949842642 -0.33201527951368076 0.032115926060397836 0.07483111643471159
-0.0859731646009003 0.2617921295176712 -0.29589144434155534 -0.012254060150510497 0.06922879394657101 0.13339648537069998 0.2580371883923562 0.23513889397732143
-0.24980085395869667 -0.18446017641860912 -0.29105389170030693 -0.23314720077033685 0.2359358898596771 -0.09703335476338192 0.013215233695589693 -0.03387878720543331
-0.030191868848766932 -0.25626851548971413 0.06642428438494846 -0.13552212873029099 -0.1698355084589448 -0.14429026150826454 0.10746150349894402 0.4662040770906023
0.04853687688835866 0.210902188269172 -0.46811869571972814 -0.1469066715684833 0.12456774278081213 0.2141724240556175 -0.223613590565365 0.3641135858192211
0.16338017501760208 -0.1599047388372696 0.2900155673016816 0.08890212639769758 0.010157123598285597 -0.2682383487004718 -0.25182768403395805 -0.09230505026969595
0.1656454057865645 0.23702557832438423 0.27091511790569683 0.37796873003284287 0.11794134197296278 0.33565347396992107 -0.34002086602947246 -0.029364708921780138
0.26522825677213696 0.4227506138405789 -0.11551559313091474 0.26653266615649923 0.1514004084865562 -0.12255768284896046 0.0636227368668667 -0.2455218845323736
-0.21643200404718704 0.03438181628416471 -0.1488774028528407 -0.11023432407597399 -0.22700225988790124 -0.20410262308410845 0.12145627940494193 0.2794563890145351
0.4807171098394798 0.21465183878266803 0.21205024464759692 0.3302196997300778 0.4190073445887023 0.16461446526288032 0.28903858610599115 0.46394647518599474
0.2594437356706567 0.15754947431810168 0.06210758939997374 0.4296532072095236 0.20608341540576372 0.2627602241830569 0.16846405728404232 0.10042358178912558
0.41477465128993835 0.18313391506290325 -0.11180729871736955 -0.0733725155219123 -0.236411085250547 0.06993706342288715 0.2768902867511313 -0.18682533132241275
-0.0500134630743965 -0.14631604485926325 0.2672190758686279 -0.13249996729651486 -0.21804125307210273 -0.330099661059497 0.28608133158486093 -0.38838338854649945
0.4132121701937461 0.4949397595021193 0.1291540675793894 0.15277120931468025 0.05933978059067095 -0.09069430224258657 0.18461563170865358 -0.21656245440332766
-0.2896845133523693 0.06582090883961894 0.2266428193786886 -0.22548304614893291 -0.30659707049098955 0.1407425392211856 0.10152049623393483 0.10904193197397842
0.4306235767555522 -0.10747923539552953 0.11328623182489268 0.2967064623040093 0.2209511720035698 0.5239953375354763 0.2044342048172853 0.2167266622928587
0.4680027168653497 0.15687457004182734 -0.06230618681605397 -0.18009112358156046 0.2778603631088086 0.03084574552869533 0.1669235470545572 0.15942320718871839
0.32437232319253734 -0.19953618349827643 0.24333001690766454 -0.4597939560782657 0.2654458449021584 0.12668241116016848 -0.12423330384377167 0.11497067494584798
-0.20516957723702278 -0.23907303429973398 0.10230104521061513 -0.2686822708506844 -0.307383209010584 -0.12719863300516124 0.1865087181933038 0.3349980295913845
-0.03610310961072496 0.3389307149068092 -0.35066776468741684 -0.10822328703478379 0.2008268190335668 0.4126608496433963 0.1525238923258817 0.379059927232223
0.19216431523227892 0.42299063172398355 -0.1469422500555087 0.3451744006177576 -0.13980692234986225 -0.3248947605385843 0.013640701755006316 0.24039781338742777
0.2312689494638821 0.26338499070533083 0.2113908271255128 0.43406639985196 -0.426129870497647 0.42001180938849414 -0.11033047896524943 -0.14141469005344848
0.3185512871724291 0.014853923954579218 -0.11419141695179916 0.49892150086462994 -0.2823489282444938 -0.288596435078259 -0.18861037979580964 -0.19550688903433922
0.1478628338760603 0.006450786405933926 0.15925519534523422 -0.19852854743024506 -0.17133648651957564 0.26002234428784204 -0.29249196883591555 0.1028426442267561
-0.08712495941765316 -0.31262775722746033 0.30011555529084905 0.4300085221469559 -0.14813349596238223 -0.2809293184716353 0.3356006934516437 -0.29027360706959504
00000000: 9190 cb79 5ea1 c53f 1b4c e60e 39bc da3f
00000010: cd50 64f3 56ec ba3f 0a65 0514 80d0 dc3f
00000020: 2fa5 8a8c 7b37 c1bf cf25 d203 bd3f d5bf
00000030: 4367 38a8 7f71 a03f d56c cfcd 2128 b33f
00000040: cf63 4b5a 5602 b6bf e33a a8c6 33c1 d03f
00000050: 6a3e 27ab e2ef d2bf 5c9f b71c a818 89bf
00000060: e129 f16d fab8 b13f 92c4 08d3 2213 c13f
00000070: 6701 5369 ae83 d03f fb39 d301 0819 ce3f
00000080: 10fb 2171 79f9 cfbf c0ef 901c 649c c7bf
00000090: 6c7c 8e80 a0a0 d2bf 9a34 3b79 c4d7 cdbf
000000a0: 4132 73b1 2533 ce3f bf73 548d 2dd7 b8bf
000000b0: e29f 40a4 9610 8b3f 39a5 2676 8f58 a1bf
000000c0: 6907 3e05 9eea 9ebf 6b75 410f b466 d0bf
000000d0: 5cf3 1791 2e01 b13f 97f4 6303 ca58 c1bf
000000e0: f4ed 4381 2bbd c5bf 9d96 2771 1a78 c2bf
000000f0: 5961 1bdb 9882 bb3f 8a6c 17a0 49d6 dd3f
00000100: 765d c555 d3d9 a83f caad a2c8 d7fe ca3f
00000110: 49cb 301e a8f5 ddbf 6ab5 f97a d6cd c2bf
00000120: 1550 61ed abe3 bf3f d70f 8382 006a cb3f
00000130: 24ae 35c1 5e9f ccbf addc c711 a34d d73f
00000140: 39f7 413e a4e9 c43f ff07 e42b c277 c4bf
00000150: 2110 3974 9d8f d23f b947 6c2d 4ac2 b63f
00000160: 8b95 680d 42cd 843f 88e6 cc2d d12a d1bf
00000170: 32cf c9dc f11d d0bf 99fa 29c4 4da1 b7bf
00000180: 3400 4b60 de33 c53f e9fe 9ba9 da56 ce3f
00000190: a967 d95c ac56 d13f abb5 99c1 a330 d83f
000001a0: 37c7 9e5e 6731 be3f 9455 5fb5 587b d53f
000001b0: b677 e3e0 e6c2 d5bf 0705 e741 c811 9ebf
000001c0: 49ee 33f0 7ff9 d03f 1eca 3397 580e db3f
000001d0: d7e1 ac0e 6e92 bdbf 6b4d 1d07 df0e d13f
000001e0: 9b80 86ad 1661 c33f 1cb7 b5b7 f05f bfbf
000001f0: 800d 2066 9449 b03f 1e69 42d8 426d cfbf
00000200: 4a5f 983d 0bb4 cbbf a1fe 0851 7e9a a13f
00000210: 25e5 2e2c 6a0e c3bf af8f cd10 5138 bcbf
00000220: a416 2bf9 680e cdbf 9d47 96e5 0820 cabf
00000230: f524 f03b c217 bf3f 9371 de0c 9de2 d13f
00000240: 5cd8 58b2 11c4 de3f 7c85 cc21 b679 cb3f
00000250: a063 ef60 7624 cb3f de7a b5ce 5122 d53f
00000260: b3b4 722e 04d1 da3f 2a55 6038 1612 c53f
00000270: 33de a6b2 9b7f d23f 342c 818e 4cb1 dd3f
00000280: ece1 f6e5 b99a d03f e25f d9c7 942a c43f
00000290: 30d1 9ce2 90cc af3f d487 652a 707f db3f
000002a0: e536 b5fc f060 ca3f 2c93 6342 10d1 d03f
000002b0: 3710 4bf0 3a90 c53f c80e 881f 5cb5 b93f
000002c0: 7701 a0fa aa8b da3f f9e6 fd9f ee70 c73f
000002d0: f4f8 7133 679f bcbf 8384 978a 8ac8 b2bf
000002e0: 500f c8eb b742 cebf d5f8 2d38 65e7 b13f
000002f0: 6346 8b09 92b8 d13f 5c0c 0c78 e4e9 c7bf
00000300: 044a 8758 5d9b a9bf 367a c6f1 7bba c2bf
00000310: 4447 ee09 1e1a d13f 9a3a 2149 c2f5 c0bf
00000320: 2fd0 8f99 c6e8 cbbf 57f5 2a54 5a20 d5bf
00000330: 8ccc c912 284f d23f e67a 0700 46db d8bf
00000340: 14a5 5275 1172 da3f 2e4f 23d0 17ad df3f
00000350: 900d 33d8 1e88 c03f 3072 e3c9 018e c33f
00000360: 163d faa1 c861 ae3f 40c1 10e6 bd37 b7bf
00000370: 2870 422a 7ca1 c73f 9415 9a89 51b8 cbbf
00000380: f763 c0e9 308a d2bf f4f1 db9a a3d9 b03f
00000390: e566 8dc4 a102 cd3f 558d 81e2 a0dc ccbf
000003a0: a9b9 b351 499f d3bf e734 8efd d903 c23f
000003b0: 0ccd 324b 3ffd b93f 838c b80b 2cea bb3f
000003c0: 1c4e c330 568f db3f cadb 0559 c283 bbbf
000003d0: a565 c694 5300 bd3f 8ae2 061a 3dfd d23f
000003e0: 7b54 e2c4 2048 cc3f 5115 bfde 91c4 e03f
000003f0: 6edf ef67 e62a ca3f 4e0a 5c03 b3bd cb3f
00000400: 830d d8aa c1f3 dd3f c3ac f345 7714 c43f
00000410: 2545 6db5 98e6 afbf cd95 0ad7 390d c7bf
00000420: 940c 1ad5 76c8 d13f 5ce1 10f1 0696 9f3f
00000430: ca0c c433 c05d c53f 4cab 8cca fa67 c43f
00000440: 35ba f521 84c2 d43f 4533 3fd3 668a c9bf
00000450: 3474 6020 7025 cf3f 8e4b 10a1 436d ddbf
00000460: dcaf ad91 10fd d03f 16a7 7416 2137 c03f
00000470: 7b41 15f9 c0cd bfbf f636 e4d8 b76e bd3f
00000480: 10ff 2e28 ff42 cabf be1f d6f7 f199 cebf
00000490: a9b5 86bb 6630 ba3f a465 941f 1732 d1bf
000004a0: 368f 829f 2aac d3bf 8531 6d78 0b48 c0bf
000004b0: 3f91 8786 84df c73f a771 5493 9b70 d53f
000004c0: 23ba 1f56 1b7c a2bf 079e 0874 0ab1 d53f
000004d0: 1d02 4635 5771 d6bf 68e2 7a76 85b4 bbbf
000004e0: 2c56 f475 b1b4 c93f 9fb5 630d 0969 da3f
000004f0: 14fb b224 e785 c33f 3bf0 ab91 8442 d83f
00000500: 6fc0 b01c d798 c83f 7c35 714c 4712 db3f
00000510: dacc 31ef 00cf c2bf 7e75 845e 5617 d63f
00000520: fc9f 9f77 31e5 c1bf 0beb c964 13cb d4bf
00000530: 423b 75ff a7ef 8b3f 6eb3 4305 5bc5 ce3f
00000540: 0c8a 438f 389a cd3f d68b 55b8 4cdb d03f
00000550: 03d8 96c8 da0e cb3f 2f06 ea6f bec7 db3f
00000560: 03b6 6838 b645 dbbf b878 5036 79e1 da3f
00000570: 1b63 e846 9e3e bcbf 860d 7a66 e019 c2bf
00000580: 3e46 20f0 2463 d43f 5348 d1ec bb6b 8e3f
00000590: 7ab8 4a11 a63b bdbf 5007 5f72 54ee df3f
000005a0: 65ba 373d 0112 d2bf d3cf 992e 5d78 d2bf
000005b0: c05e 748a 6224 c8bf b8c8 45a7 5e06 c9bf
000005c0: d651 e559 2bed c23f b1fa 59ca 236c 7a3f
000005d0: 63e9 dc67 7962 c43f 4c84 4429 6269 c9bf
000005e0: 9747 1b9f 5aee c5bf a183 3cc2 34a4 d03f
000005f0: d08b 1f3c 30b8 d2bf 748c 9641 e553 ba3f
00000600: c638 5d43 d24d b6bf 0148 47da 1702 d4bf
00000610: 55af bfdf 1735 d33f 81d6 e776 4285 db3f
00000620: ccdf 4cd4 09f6 c2bf 01b0 d4f6 befa d1bf
00000630: 5af1 b854 7b7a d53f 1860 50c0 d793 d2bf

bias f8 [20]
0.1433276519759467 0.046920589992469265 0.15088735361995315 0.2606079993648476 -0.10138156977539595 -0.15425438814893594 -0.1252164835738479 0.10152431925943813
0.0968880392188597 -0.30806046232005574 -0.0382223598324768 0.027673022365321 0.1951946068267735 0.2390955091551451 -0.305252821992528 -0.1854936301970361
0.04077930676731397 0.12441451655120839 0.04840154455269399 0.44777597127189916
00000000: 4eb1 ec7c 8f58 c23f 0da9 0dbf f905 a83f
00000010: 6abe 96dc 4650 c33f c845 962c cdad d03f
00000020: 523b 9a7e 24f4 b9bf 1e9d 2e98 9bbe c3bf
00000030: 8a55 effe 1707 c0bf 8dcb f76e 7ffd b93f
00000040: a98d d18f a7cd b83f e7bc b63a 43b7 d3bf
00000050: 71b1 e992 e191 a3bf c480 2918 5156 9c3f
00000060: dd99 560a 23fc c83f 748d 3880 ae9a ce3f
00000070: 360e de21 4389 d3bf e302 a859 41be c7bf
00000080: cb9c d679 06e1 a43f e82e bc37 a1d9 bf3f
00000090: a402 dc55 16c8 a83f 4c09 238c 5ca8 dc3f

weight f8 [20, 20]
0.0040331143992064465 -0.015045593097631663 0.1900992234601115 -0.12309414917209618 0.09130793223106912 -0.05360561284819272 0.22008304328345157 0.07596714802199035
0.031611083639254696 0.05831574565748546 0.11965449754242585 0.1168460670406169 -0.12818567975394207 -0.1283647435948937 0.18740835191587762 -0.014112169750312016
-0.18693021152093575 -0.21952533026569504 0.20022747827856005 0.19862797607809396 -0.08766515425453808 -0.045583617246407776 0.1365602832755863 -0.21431105116956162
0.16849260208871308 -0.15424319078311066 0.0773305712296892 -0.04718882911958762 -0.2208521326429523 0.08153366492186355 0.0883633982389315 0.029555108665898208
0.04493858058070478 -0.01659077199601649 0.1625848454795832 -0.13405653863872913 0.037509885484332726 0.14804315590136616 0.12458483594070895 -0.05569901682753611
0.001234812138780097 -0.1626437416653336 0.21334950872237088 -0.06868351164911296 0.00490196071831053 -0.033069464710410446 -0.12486310852723245 0.09262667866797308
0.030589644248044334 -0.12206044282494356 -0.11364106691440604 -0.20220924738535082 -0.0032713843962058585 0.06737749857586876 0.11747542547242315 0.04697180145585779
0.15466195655473178 -0.21848622369683904 -0.0033151341755740973 -0.04425363221666575 0.013753976779969236 -0.05076560899312616 -0.20706913615655792 -0.1473061648806114
0.10607781516909019 -0.1527968294317894 0.11321706775198392 0.01816668186019436 0.06578909966692884 0.14217580263895194 0.010895757618662832 -0.16571177696971548
-0.06239671858224926 -0.1275244758524708 -0.04313273230442716 0.1641231558680491 0.027799596541388225 0.013233541648029088 0.2066004829646019 0.11392223058217756
-0.006109827427863633 -0.08947974764223184 0.21279132046215435 -0.0836018327845962 0.03147188418949566 0.19940916842366144 -0.14920961172925962 0.05888124521198783
-0.2186999408705868 0.13473809011906082 -0.1444168383228598 0.12252193520959247 -0.17711903826341202 0.08085260613849055 0.21028646167839316 -0.016101477756289305
0.15181001840845113 -0.006895738288529522 0.02134711937827228 0.00873834645871396 0.020383807254910503 0.06891491370928923 0.06864668685326418 0.04178962135999884
0.16174262986756416 0.02737329173071658 0.04924471954455357 0.13086742001690987 -0.18916563442441994 0.08498352606797624 0.008941748561089074 -0.04624566838839464
-0.06675120832955854 -0.22013166824680286 0.16293722687205206 -0.18294530094831238 0.09127079810566878 -0.11772422894213884 -0.13288288276548205 0.00531237632914859
0.3003283830304949 -0.17786295089890075 0.20803431226115265 0.1212565607218428 -0.10132875595690198 -0.03157650204055241 0.1690896788229263 0.07429584547662402
0.06255451761638335 -0.007719435222833074 0.3140456243719241 0.14825264224178494 0.18911154215665305 0.26447917591759634 -0.14648305253284247 0.024154715227540965
0.1524328879618037 0.06886256561368212 0.06134086382522493 0.023035485082126363 -0.17566486764366646 -0.13649771058236673 0.01841060649554708 -0.37324671223270617
-0.06488684210410874 -0.21418546702928695 0.03138173747904879 0.25585110042146825 0.1917973409969501 -0.18416799011411644 0.33420355355393483 -0.0054380330688522105
0.051669884311040255 0.14730681814784605 -0.20971383292879028 -0.22998976793379305 -0.3023707707677534 0.05527549786669134 0.1275784242534021 0.2138450199494514
0.4214737293783742 -0.16858249519859783 -0.1428195747849187 0.2873711689510042 0.13696934289732093 0.023322994026407612 0.20100107586166385 0.3543954532128357
0.21711445915829444 0.16168204732283856 -0.28480014142723464 0.22149026497464958 0.2708422444945006 -0.051030197995751626 -0.19809611835741492 0.35291378301914367
0.36004813119575185 0.313967784369579 -0.1837017459600115 -0.2857947905532744 -0.4558773505320007 0.1689935642212056 -0.15614872358765958 -0.352290230303918
-0.04965648007444773 -0.42459205078365164 -0.08388773919467402 0.0983081627946559 0.32263521931954725 -0.026572562484189627 0.3579711385513125 0.18377928849956232
-0.05174560548604666 0.35529276312542135 -0.09199740104559319 -0.2812298373940887 -0.41716154465622196 -0.3912552784172772 -0.19133410768057504 0.10060146094268835
0.2584108601434604 0.050851364125477666 -0.02408086120267778 0.351973410804503 0.06333057122747365 0.43088879426272614 0.048714084645744726 -0.0639542455306107
0.1735821801137275 -0.143452716808856 -0.02574876594536349 -0.18553224533266963 0.13157497679344227 -0.037041793247139986 -0.04491366696358466 0.023184304810031767
0.1955740760140902 0.40006088123394073 -0.1271779494862369 -0.26588152792627945 -0.43717682081240733 0.18009312797740243 0.22079249346433708 -0.3128847657244178
-0.14246303217175577 -0.4803775276640814 0.16359455033557674 0.003601568448036499 0.11046786822013081 -0.00990558983879347 0.37817469908186613 0.09281734632022326
0.06646465889740902 0.042289488718186705 -0.20037052866990357 -0.2792039196707616 -0.18139627583068704 -0.46657243628428247 0.19213140830176423 0.39890360732182045
-0.11405030688142762 -0.017154166745472668 -0.07540621201131935 -0.35793487223546394 -0.09090401744499454 -0.03968250872091155 0.11430941762491302 0.13265406832312623
-0.12328974418128781 0.11788655125420927 0.17447584956583553 0.17302200243210586 0.26602006270208567 0.42874749209242957 -0.060968624370040726 -0.06278487672937479
00000000: bc40 21e7 0685 703f 080f 6d52 39d0 8ebf
00000010: 56ca e0dd 2b55 c83f cae9 0521 1983 bfbf
00000020: 563e cce6 f45f b73f fa4a 21e4 3172 abbf
00000030: ea3d a760 ae2b cc3f b128 5340 9572 b33f
00000040: a1eb d7f4 532f a03f 84aa e1b8 8fdb ad3f
00000050: 9097 c359 ada1 be3f 640d 9bb4 9fe9 bd3f
00000060: 3aea 2d6b 6368 c0bf 0489 d983 416e c0bf
00000070: 0aec 3c33 fffc c73f 31ef 6c5c d7e6 8cbf
00000080: b2f2 8e44 54ed c7bf ca3f 11f1 6719 ccbf
00000090: 89c5 7bd3 0da1 c93f 1ebd a93a a46c c93f
000000a0: 2ca4 853a 3971 b6bf 2c08 9d62 bc56 a7bf
000000b0: 1ff2 4caf ce7a c13f 48ea f865 8b6e cbbf
000000c0: 2c63 cb63 2a91 c53f aca6 05aa 3dbe c3bf
000000d0: 7e9a 69b2 efcb b33f 1a3e 9c5b 2229 a8bf
000000e0: db06 7af7 e144 ccbf f9c7 5ce8 63df b43f
000000f0: aa81 99d1 fb9e b63f 6c5a 99c4 b143 9e3f
00000100: a277 d88b 3002 a73f 2e9a 8ddc 2bfd 90bf
00000110: a57b 1489 94cf c43f b857 a2c0 c328 c1bf
00000120: db23 dde6 7e34 a33f 871a 7f00 14f3 c23f
00000130: f35f f1b3 cae4 bf3f 5422 63df 9484 acbf
00000140: 714a 2d70 2d3b 543f dd03 ad97 82d1 c4bf
00000150: 9f45 4a65 094f cb3f 24b0 4e1c 3e95 b1bf
00000160: 1df0 8a0f 1414 743f 48d9 da1a 7bee a0bf
00000170: def2 9957 07f7 bfbf 24b5 9dcb 61b6 b73f
00000180: 2006 9146 e452 9f3f 5983 116a 5a3f bfbf
00000190: 8a42 e1b9 9417 bdbf 7303 3c1c fee1 c9bf
000001a0: b8b4 d11f 97cc 6abf eba0 ded8 a63f b13f
000001b0: b6dc 7c96 de12 be3f 429a 2c1e b00c a83f
000001c0: cf41 ab86 f6cb c33f 79c5 b348 5bf7 cbbf
000001d0: 67cd b51b 5728 6bbf db17 337e 69a8 a6bf
000001e0: f4e5 ad83 0b2b 8c3f e924 c62c f3fd a9bf
000001f0: 66d5 e6cf 3d81 cabf 13a9 54ac edda c2bf
00000200: ef7c fb6a ea27 bb3f 80c7 abb4 d88e c3bf
00000210: 7002 5833 cbfb bc3f 6b90 dd61 499a 923f
00000220: d2b3 80ef 8dd7 b03f e9f4 4e13 d132 c23f
00000230: 9630 19d5 8350 863f 0bd0 5223 0b36 c5bf
00000240: ef7f 6073 76f2 afbf 6aea 9cd6 b852 c0bf
00000250: 30ef 4455 7e15 a6bf 3e1b 7cd1 fc01 c53f
00000260: 89f3 f257 7f77 9c3f df53 b5e4 2f1a 8b3f
00000270: cddb d576 e271 ca3f 6948 a3de 012a bd3f
00000280: b240 ca4f 9e06 79bf 9518 c70d 25e8 b6bf
00000290: 51f9 20f9 be3c cb3f 5f0c b201 ee66 b5bf
000002a0: 82bd ac32 151d a03f b17a 7358 3d86 c93f
000002b0: b021 50f1 4c19 c3bf 6605 11bd ae25 ae3f
000002c0: 2291 d612 5cfe cbbf 751e 4b05 193f c13f
000002d0: c450 cb3e 407c c2bf 8b90 c4f8 985d bf3f
000002e0: d88f 6b2e d6ab c6bf 7843 29a3 c1b2 b43f
000002f0: fca1 d9b1 aaea ca3f b6aa 85e1 e77c 90bf
00000300: 857d 22bc 826e c33f 046a e5a6 b43e 7cbf
00000310: 22bb 5fee 04dc 953f 3e21 1702 69e5 813f
00000320: bd79 1c26 7edf 943f 0e8b 9664 68a4 b13f
00000330: 3b76 034b d492 b13f 9d59 1b02 7365 a53f
00000340: 703a d384 fbb3 c43f c4b5 1183 be07 9c3f
00000350: 019c e397 9a36 a93f acd1 8a7c 43c0 c03f
00000360: 09a3 b05a 9436 c8bf 0a25 29f9 7ac1 b53f
00000370: b688 1c2d 0d50 823f 34a0 9e22 83ad a7bf
00000380: a372 be70 9b16 b1bf 588b f745 462d ccbf
00000390: ddb2 5b86 20db c43f 17d3 436a c06a c7bf
000003a0: 1b94 f1e4 855d b73f 77d8 40d1 2c23 bebf
000003b0: 7285 d669 4e02 c1bf 6f55 9029 6ec2 753f
000003c0: 624c cb89 9438 d33f 52f2 a392 36c4 c6bf
000003d0: a4c2 cd4b dea0 ca3f f2ca b982 ab0a bf3f
000003e0: bbb0 fa6c aef0 b9bf f128 2c97 cb2a a0bf
000003f0: be5b 5108 bba4 c53f 3eff 8c72 0d05 b33f
00000400: d321 61a7 9203 b03f b7e5 351d 6a9e 7fbf
00000410: b146 88d1 5219 d43f d1ad fc4c f1f9 c23f
00000420: 14f2 6d98 ce34 c83f bb80 c210 3aed d03f
00000430: d1fd 05e8 f4bf c2bf 7c32 c97f 03bc 983f
00000440: 5ebd 50be eb82 c33f 32bb 3a23 faa0 b13f
00000450: 6b51 13d8 1168 af3f ba08 4d3c 9d96 973f
00000460: bef8 cab6 2f7c c6bf c50e 77c9 c178 c1bf
00000470: aa0c 31e3 3ada 923f 7941 982d 46e3 d7bf
00000480: 0522 c790 6c9c b0bf c3aa 15ec 6d6a cbbf
00000490: 5b0e 5460 4411 a03f 1f2c 3d4b dd5f d03f
000004a0: 2355 85b5 d08c c83f a04d 4113 d192 c7bf
000004b0: 1227 2e4d 9763 d53f 40ef f6e2 3046 76bf
000004c0: b1a8 9b9e 7974 aa3f e71e 3627 f3da c23f
000004d0: d356 f922 e7d7 cabf ca5a d801 4e70 cdbf
000004e0: 20af edee 0a5a d3bf b811 37ef 114d ac3f
000004f0: 46fa eb63 7d54 c03f cd34 8c0b 465f cb3f
00000500: cd68 f3f2 6cf9 da3f cd2c c777 1c94 c5bf
00000510: 6405 776d e947 c2bf 794d 1d0b 4a64 d23f
00000520: a238 2620 3688 c13f 6857 5aa2 fbe1 973f
00000530: 51b1 a43b 67ba c93f 549d 5944 6aae d63f
00000540: cd6b c916 68ca cb3f 950b cd50 ffb1 c43f
00000550: 9adf 545f 2a3a d2bf 4268 3902 cb59 cc3f
00000560: d7a9 9eb5 7a55 d13f b514 004f a120 aabf
00000570: 5ca2 e7ae 365b c9bf befd 17b1 2396 d63f
00000580: de2f 1e51 070b d73f e15a 7755 0c18 d43f
00000590: 8ae4 8eef 8983 c7bf 6ec8 b23b 764a d2bf
000005a0: 9d69 e131 182d ddbf 4c43 c8c3 94a1 c53f
000005b0: 9281 8f6e aefc c3bf bdc2 7652 ec8b d6bf
000005c0: a890 e8fb 926c a9bf 8178 1023 842c dbbf
000005d0: 7462 60b8 aa79 b5bf 2605 2248 b92a b93f
000005e0: bdf9 e030 0ea6 d43f e8ae 5c7b d635 9bbf
000005f0: 6d58 3fc7 ffe8 d63f 9ed5 e468 1486 c73f
00000600: 8e6f 8c66 667e aabf 2644 88db 1dbd d63f
00000610: 39cd ce44 248d b7bf ac16 916e abff d1bf
00000620: d7a0 dc55 c6b2 dabf 1522 4c94 530a d9bf
00000630: 0178 8cd3 a27d c8bf 2cbd ad70 04c1 b93f
00000640: 46d5 4fb4 cd89 d03f d477 c0a3 3009 aa3f
00000650: 12d1 4c3d a7a8 98bf e9e1 1d7c bb86 d63f
00000660: b04d 42ac 6e36 b03f df8f e497 ae93 db3f
00000670: d8eb d070 0df1 a83f 398c fe30 4e5f b0bf
00000680: 2ce0 60dd f037 c63f 89b2 9b9b a85c c2bf
00000690: 483d 976e e25d 9abf 7354 0747 85bf c7bf
000006a0: a25f 26e7 72d7 c03f 53cf 2955 24f7 a2bf
000006b0: 4e0a 8195 ecfe a6bf c421 c25b a0bd 973f
000006c0: 0d85 3642 9208 c93f ffc1 53f4 989a d93f
000006d0: c269 e8f6 5d47 c0bf c972 c3f4 3304 d1bf
000006e0: bf58 fd7c b4fa dbbf 45da 72a7 4a0d c73f
000006f0: f9d8 50ad ed42 cc3f e4fd 0cd3 4d06 d4bf
00000700: 3289 0888 3a3c c2bf 753c c362 81be debf
00000710: 5a60 bf8d aaf0 c43f 061d 5b56 0981 6d3f
00000720: 23a9 4349 9f47 bc3f 9fdd 3dc3 6149 84bf
00000730: e7cc 2ea7 0334 d83f bc65 f2aa e0c2 b73f
00000740: e6dd 4df0 d303 b13f 4eb2 04c6 f7a6 a53f
00000750: 7817 dcd1 bda5 c9bf dfa8 f91d 7ade d1bf
00000760: 2f8d 2740 fe37 c7bf 1c96 c3a2 52dc ddbf
00000770: 5062 9811 c397 c83f 8508 edfe a287 d93f
00000780: 028d 27a2 6632 bdbf 84d2 a5a4 dc90 91bf
00000790: e7fc 804e d24d b3bf 365a 96aa 67e8 d6bf
000007a0: e852 0056 7c45 b7bf f7ed 5b0a 4451 a4bf
000007b0: 0be5 52ca 6143 bd3f dd88 90fa cefa c03f
000007c0: b9da 30ab ea8f bfbf 1c6a 4622 d02d be3f
000007d0: bddd e981 3955 c63f 0898 f7c0 9525 c63f
000007e0: 34a9 5803 7906 d13f 32db 3152 9970 db3f
000007f0: e5bb 808f 4737 afbf 2d6e 3c70 ab12 b0bf

bias f8 [20]
-0.14206711388718316 0.11663103039738931 -0.13098626141372444 -0.11861173359789952 0.07127135369217988 -0.0046121745284196285 0.3726899093009775 -0.04115056233315408
0.07289212493033378 0.32534179542737535 -0.0060589791035127495 0.20404722522021718 0.31857253177031514 -0.09563593869834111 -0.05790561368653752 0.002242944459261605
0.3143974126314364 0.4146692810459711 0.18274487088766397 -0.1271799863651132
00000000: 7fc4 fd53 412f c2bf f86c 41fd 87db bd3f
00000010: fea5 7f66 28c4 c0bf 4d8f b9ac 565d bebf
00000020: 42e3 3fe5 d63e b23f 5546 352c 37e4 72bf
00000030: 49cd ffc6 26da d73f e3a5 ddbe af11 a5bf
00000040: ee33 b6ec 0ea9 b23f df7a d864 66d2 d43f
00000050: a439 8cd1 4cd1 78bf 4e87 942f 381e ca3f
00000060: 0be0 560b 7e63 d43f 4a19 08cd 987b b8bf
00000070: c9b4 13fa cda5 adbf 913e 2da3 cb5f 623f
00000080: 04bd 4c53 161f d43f cce3 2f06 f189 da3f
00000090: 87b4 fc15 2f64 c73f e56a 120d 6f47 c0bf

weight f8 [10, 20]
0.12840545718042476 -0.07396119360413296 -0.18008627648289205 -0.11166208204805902 0.00674768101636231 -0.1819008451701003 0.35623425061769964 -0.2764557364517176
0.3744413602947029 -0.034809317810276914 0.0763610438134867 -0.35722645894909405 -0.26064767504056824 0.11648131365504621 0.2483890204490224 -0.17499241609939398
-0.17479433847852188 0.3431605285329867 -0.23416394215405614 0.15867389031781667 0.1980050360616837 0.1374072733981258 -0.03272862118045569 0.19921990751140653
0.11920131959253057 -0.13760099520641794 -0.23663716648623853 0.09299047220964277 -0.15767765691676083 -0.07140819049226577 0.1501069464021096 0.13410900114628424
-0.17746428406108622 0.06334031589385672 0.07238458737928827 -0.2185706648901432 -0.21471276933408323 0.14661959096088864 -0.18932822213814748 -0.1432158023654436
0.13769321044911337 0.0862712021230076 -0.0645167099382328 -0.018449856168388942 0.18638815485843266 -0.09700981935944025 0.02094364099869892 -0.21185097198416647
-0.05665264904377166 -0.09703088066212193 -0.16202582525817263 -0.10597295135199578 0.04770751762810346 0.14877129245559745 -0.07272737174177833 -0.02891613032020884
0.08049843037358989 0.0780417066466426 -0.0951678471927718 0.05241859739414559 0.16277472015596944 -0.18211728036437513 0.061234796827147435 -0.19793006536004343
0.08380612775299637 -0.036311229507650325 0.00775128587298104 -0.14153092078180757 -0.04660761206133362 0.05031013409453222 -0.12424972236804044 -0.07425908447654381
0.16959193925065041 0.13118118852850008 0.14258617871230714 -0.06763474230402068 -0.20595986372511585 -0.20185684457840697 -0.14687573552492086 -0.21737379057399348
-0.054060290998861636 -0.18897022320260495 -0.15062121837073963 0.08156364028194558 0.1979833412873653 -0.019988607969672063 0.16956659814318947 0.4021581418735814
-0.055791713807916914 0.26235166935127324 -0.2096841259116731 0.354638720576423 0.4214607153368878 0.1935572337235234 -0.3331513213288282 0.08100895425250146
0.3750384060237877 0.3388169827675391 0.2584084560100158 0.18023981102268805 0.15240521197482565 -0.1871445791026423 0.1211453959380753 0.14052768454396453
0.13217680324353454 0.06753579600519982 0.0476987051365394 0.22845319738899952 -0.20232371748495234 0.18495950884559753 -0.09926596200610506 -0.03745850949408063
-0.03354902942074903 -0.02781678005437097 -0.24413963488767254 0.20926329110118727 0.1250910328175954 -0.15477495724711976 0.21205041274352684 0.1292686558970045
-0.15009840906480376 -0.007085080062661554 -0.046204604572207646 -0.026076532570486477 0.1829076447095363 0.21325432839568204 0.25183038549505804 0.18720645371901776
0.006748753064535468 0.3907078992960747 -0.31300376634361715 0.4356630308548734 0.242270880833368 -0.010415406713043788 -0.32068336548194204 -0.15849647182785015
0.31424631370997913 0.26525852574806846 0.2649383027092965 -0.00808043516623673 -0.22190542041472935 -0.16105416839432488 0.19018476817251398 -0.03364592342989527
-0.13150928626964392 0.0438074875428957 0.005089709119855861 0.003709956849921607 0.03606716339063642 -0.06120146020547023 -0.14341319996271013 -0.31038308392918623
0.29482676370311495 -0.138154686137465 0.07792453187140456 -0.12259746123025604 -0.2392261151059299 0.18021002059458785 -0.11630888760972634 0.0014321806611795732
-0.1348235848416883 -0.1467173203808345 0.12667464587088806 -0.18825255519298 -0.15517952287982228 0.03394182007653759 -0.03812051204864729 -0.18363666348329566
-0.07014987889483171 -0.16067934603276254 -0.12238067734222693 0.036843884469539845 0.13553405217993067 -0.03826705531094452 -0.12281660075497108 0.14471375631057257
-0.18743361493750044 -0.14848843478363574 0.0749563047274044 0.14918948829232487 -0.05348337263651469 -0.15087159693862323 -0.1311714750714874 0.20553609108261964
0.21719331420842541 0.2121893974746201 -0.06733461032479879 0.3071044927296438 -0.3350326097522418 0.16954149826667855 -0.43154559383094243 -0.06310955006739724
0.13113081558579417 0.009364558989225781 -0.06885114518429938 -0.10259212852996605 -0.031123237546603164 -0.1018127166255723 0.30619277665010025 0.14193100466663197
00000000: 99e2 9b0b 976f c03f a5ef b3eb 1eef b2bf
00000010: 66e9 f92d 110d c7bf c684 99de e295 bcbf
00000020: 4538 a0d4 74a3 7b3f 5067 8fe2 8648 c7bf
00000030: c08e 07be 8acc d63f 9e82 b666 73b1 d1bf
00000040: 7612 2fe5 d8f6 d73f 09b3 2ee3 86d2 a1bf
00000050: 8d0a deb9 658c b33f 97f1 9c5d ccdc d6bf
00000060: a5f8 0496 73ae d0bf c058 be28 b8d1 bd3f
00000070: 9ecb c11f 36cb cf3f 2cf3 18c8 2666 c6bf
00000080: 3c46 a52f a95f c6bf b5f1 d493 57f6 d53f
00000090: 2d20 ba84 15f9 cdbf 5172 d210 6d4f c43f
000000a0: 8303 2aa1 3a58 c93f 1a1e bdc0 8f96 c13f
000000b0: 4cf9 394b cec1 a0bf 19a0 bcb5 0980 c93f
000000c0: 013b 4a49 fa83 be3f ca80 27cf e89c c1bf
000000d0: cfca 896d 204a cebf 1ae2 fa3c 39ce b73f
000000e0: 083a e20d c82e c4bf 98b0 d4a2 ce47 b2bf
000000f0: be88 d954 b436 c33f d9e1 02d7 7b2a c13f
00000100: be0d 2050 26b7 c6bf ea4c 4829 1237 b03f
00000110: 9c4b 87db cb87 b23f d4b8 c8a0 1ffa cbbf
00000120: c467 2941 b57b cbbf 05a1 1046 6ec4 c23f
00000130: 7c86 253d e83b c8bf 9309 b739 e554 c2bf
00000140: d24d e15d ee9f c13f dc75 b497 de15 b63f
00000150: 3af0 3ac7 2a84 b0bf ecc0 6fe3 84e4 92bf
00000160: bd47 bd2a 91db c73f 6427 8ab1 a2d5 b8bf
00000170: 7a24 98f4 3f72 953f 8c1e 26c2 ee1d cbbf
00000180: 31e1 bf75 9301 adbf 3659 250b 04d7 b8bf
00000190: 7bae 4b22 43bd c4bf 7e42 5118 0b21 bbbf
000001a0: 44db f8a7 1e6d a83f be18 d70d f00a c33f
000001b0: 47ac 27d3 429e b2bf 4f6c 35a8 309c 9dbf
000001c0: 947a d58d 8b9b b43f 9377 c591 8afa b33f
000001d0: b6dc 5287 eb5c b8bf c424 0543 9cd6 aa3f
000001e0: 86bc d751 cdd5 c43f 40c9 9979 9e4f c7bf
000001f0: 27e6 7fd3 2a5a af3f 6cea ceba c555 c9bf
00000200: ea4c e781 5174 b53f 5202 6dae 6297 a2bf
00000210: 9aef 38f5 cfbf 7f3f 7eb8 106a af1d c2bf
00000220: 579e 18f3 f3dc a7bf e0d0 2ff9 3fc2 a93f
00000230: a899 1b6e d4ce bfbf cef5 41b3 a402 b3bf
00000240: e895 5f4c 30b5 c53f de47 4a91 8bca c03f
00000250: 0b2a 378f 4340 c23f 71e7 44ae 8250 b1bf
00000260: 6f76 7e8f e45c cabf ce10 f8f0 71d6 c9bf
00000270: c9e6 53f8 d2cc c2bf eaec c284 e7d2 cbbf
00000280: bb67 b45b caad abbf 5958 4920 2d30 c8bf
00000290: 4935 7e5b 8e47 c3bf f5bc 8dcf 5ae1 b43f
000002a0: 81b3 fda3 8457 c93f 82d7 16c6 e477 94bf
000002b0: b66d c2b8 5bb4 c53f c1b2 ca80 f5bc d93f
000002c0: ffb5 6244 bb90 acbf d78a faa7 5eca d03f
000002d0: 39f7 a3ef edd6 cabf 6058 b19a 66b2 d63f
000002e0: baec 3a5d 36f9 da3f e095 5fc2 7bc6 c83f
000002f0: 0c7f 6eeb 5952 d5bf 7299 32b9 00bd b43f
00000300: cc6e 2716 a100 d83f f338 146d 2daf d53f
00000310: f1a9 e49e c389 d03f 14cc e31e 1912 c73f
00000320: 52fe 9594 0382 c33f e14c 6f83 5af4 c7bf
00000330: f270 9d79 6203 bf3f 6a43 a6a8 cffc c13f
00000340: 6c43 9c63 2beb c03f 3cd3 26a3 064a b13f
00000350: c0f7 3ef5 f66b a83f c5e7 b951 f43d cd3f
00000360: 27c9 e65a bee5 c9bf 78bc c9d0 c0ac c73f
00000370: 4915 6c7c 7e69 b9bf 77cc 7702 c32d a3bf
00000380: e46c 59a0 562d a1bf 0946 7482 007c 9cbf
00000390: d8fd bfb1 f73f cfbf f536 c4b7 23c9 ca3f
000003a0: 49ba 7ca3 fb02 c03f e8de ce71 aacf c3bf
000003b0: 9b1a ebc9 7724 cb3f 93dd bc14 e08b c03f
000003c0: 14b7 0eb7 6c36 c3bf b4ec 89b2 3e05 7dbf
000003d0: 6fde 1f43 21a8 a7bf 6051 557a ceb3 9abf
000003e0: d6a0 1b88 8469 c73f 984e 18f7 ea4b cb3f
000003f0: 3fc8 7531 fd1d d03f 8362 298e 61f6 c73f
00000400: 6d21 379b 94a4 7b3f fdfd 70b4 5b01 d93f
00000410: 501f fef2 4008 d4bf 5344 6631 e7e1 db3f
00000420: 30e9 f972 bb02 cf3f 1510 a839 ac54 85bf
00000430: 1b6f c785 1386 d4bf a218 84c5 9c49 c4bf
00000440: 7877 1192 9c1c d43f 21ae 44e5 fef9 d03f
00000450: fe06 66c8 bff4 d03f 9823 36a6 798c 80bf
00000460: 2342 be95 6567 ccbf 55ad 1149 6c9d c4bf
00000470: f1c7 bf77 f957 c83f 93dc 8cd9 093a a1bf
00000480: 82ff d2d9 4bd5 c0bf d721 a25c ef6d a63f
00000490: 1277 7463 f2d8 743f 2327 e1ea 5764 6e3f
000004a0: 9fcd 712e 6577 a23f bf91 193c cc55 afbf
000004b0: 3ec8 d31d 5d5b c2bf 5247 ad02 51dd d3bf
000004c0: 17c9 0513 71de d23f 7af1 5f81 0daf c1bf
000004d0: 5f9c f1b3 dcf2 b33f df7b 8e16 8c62 bfbf
000004e0: 2a53 5d1a f69e cebf 3ac0 6e38 1f11 c73f
000004f0: 0796 8454 6bc6 bdbf 3abe 8246 0077 573f
00000500: aff0 cf33 e641 c1bf 9f6e 6516 a2c7 c2bf
00000510: 68b9 9ff2 df36 c03f c49c f8e3 a818 c8bf
00000520: 588c e32f ecdc c3bf 6411 647e d260 a13f
00000530: 8e86 1c21 8884 a3bf 9cef 00fc 6781 c7bf
00000540: 18f2 abab 57f5 b1bf a33b 2d0c 2491 c4bf
00000550: a2e1 d80e 5754 bfbf a863 b59d 33dd a23f
00000560: 69b7 cd08 2e59 c13f fd42 264e bd97 a3bf
00000570: 6c03 a6a3 e870 bfbf fb4e 51f9 fa85 c23f
00000580: 80ef 291f d3fd c7bf d16e 9d45 ab01 c3bf
00000590: fde6 6e1d 5630 b33f 6aae 8f22 a418 c33f
000005a0: 9e0c b530 2c62 abbf 3a93 5faf c24f c3bf
000005b0: a8d0 cc15 3aca c0bf d17b acb2 014f ca3f
000005c0: 5eaf b792 fdcc cb3f 6910 5bad 0529 cb3f
000005d0: d6e1 3b4d d73c b1bf 949f 2e9a 99a7 d33f
000005e0: a4ae 7e9d 2c71 d5bf 8963 2f2b 89b3 c53f
000005f0: af27 0f69 719e dbbf 9ed0 9a8d f227 b0bf
00000600: 5f2a 3802 e5c8 c03f 212f cdd4 b92d 833f
00000610: aad4 db88 3aa0 b1bf d2fc dc4c 7a43 babf
00000620: 5c19 a21d c5de 9fbf 9547 39f0 6510 babf
00000630: 84f3 7e96 a998 d33f 1f72 aa8f cb2a c23f

bias f8 [10]
0.16281094028846843 -0.15714118057249718 -0.09711738327248316 0.0031586809839104233 0.10393210782367875 -0.029098153558095648 0.2997753502390313 -0.09464284112969717
-0.0025697652121174502 0.3057268328817465
00000000: 5428 fc27 fdd6 c43f 51f4 b4c3 331d c4bf
00000010: 0d46 0751 afdc b8bf 82d2 c7f0 3be0 693f
00000020: 5d67 1b6c 4b9b ba3f 42c0 9f07 e8cb 9dbf
00000030: 051c 5bf3 842f d33f d4db 7363 833a b8bf
00000040: a013 6c31 300d 65bf 0e27 2f47 0791 d33f

weight f8 [1, 10]
-0.2993541274247324 1.0415818770484317 0.050694455164575276 0.22452746928191944 0.3064386013081445 0.3456578983368319 0.2371510604900739 0.5036948124634378
0.07471014282737104 0.23327486696147512
00000000: d38e cd36 9e28 d3bf 0b78 20c2 51aa f03f
00000010: 7170 0aa6 9ff4 a93f 674b cfec 50bd cc3f
00000020: fe6d b6a6 b09c d33f 847d 3d4e 421f d63f
00000030: 761f 8248 f75a ce3f 0d40 5695 441e e03f
00000040: 0c80 1f34 3420 b33f 4b05 4a6a f3db cd3f

bias f8 [1]
-0.11721804981223923
00000000: 8dc8 718a 0002 bebf
