test/tests/controls/libtorch_nn_control/model_2.pt (torch, 9840 bytes, 6 tensors)

weight f8 [6, 2]
0	0x3fd86336cfb897de	0.3810555485273407
1	0x3ff5c30e5ad74b18	1.360121111724487
2	0x3ff0fc946a0577d5	1.061664976259171
3	0x3ff0d0f8bb423cb4	1.0510184588236315
4	0x3fbbdec19a8c73d0	0.10886774085197648
5	0xbfdf40b63c8eee98	-0.4883246985807346
6	0xbfdd680f0e468bd4	-0.45947624582384816
7	0xbfe06ce4f0c12b60	-0.5132927610623987
8	0x3ff0ec6bfc2581bc	1.057720169970806
9	0x3fe0175f5c8ae04b	0.50285308909134
10	0x3ff8141566aa9825	1.504903222122729
11	0x3ff1d2f0492bce34	1.113998685669583

bias f8 [6]
0	0xbffa2ca82292a3c5	-1.6359025335789152
1	0xc000de111d32391d	-2.1084310799552797
2	0xbfe23850b9376a88	-0.5693744294652143
3	0xbfe5b82e69e635c8	-0.6787330692620168
4	0xbfedaa889467131c	-0.9270670793999645
5	0xc0045e2a93f533ff	-2.5459796485142756

weight f8 [4, 6]
0	0x401020e50740d9c6	4.032123673756763
1	0x40214a354107425d	8.644937545906197
2	0xbfb6f38ffbce5c68	-0.08965396783456614
3	0x3fd122d5aa126003	0.26775113686153434
4	0x3feb9ba47c19dc0a	0.8627493308875966
5	0x401ae3db63508af8	6.722516586104341
6	0x3fc30a9f8947dbc6	0.14876169398459477
7	0x3fd6c9398c11df35	0.35603178671543684
8	0x3fc1016de7ddf142	0.1328561193621543
9	0x3fd31110759cb6d7	0.29791652188837986
10	0xbfd91951b4b7b84e	-0.3921703591175899
11	0x3fba17f6bb7f5c3c	0.10192815854621612
12	0x3fbbe4269fbdc40c	0.1089500560754148
13	0x3fc0d36bac6f1442	0.13145204467415011
14	0xbfd205ada9cba058	-0.281596580329738
15	0xbfd8b514627bb7d2	-0.386052223372528
16	0xbfc6c6a8cf3f6220	-0.17793760413657456
17	0x3fcb5a1394863376	0.21368641616973222
18	0x400f21a9527c4f3d	3.8914362377344376
19	0x401f0dfa77559231	7.76365076503548
20	0xbfc8bbd2cf2911ba	-0.19323191752677166
21	0xbfd4e1657dcef0cc	-0.32625710760090665
22	0x3fdf6975b6661b49	0.49081175625217505
23	0x40185251eaba470d	6.080390613193015

bias f8 [4]
0	0xbff6896185bcc1d3	-1.4085402702440788
1	0xbfd6ba3ef72cb4c9	-0.3551175512137204
2	0xbfd2a039a50979af	-0.29102936856170464
3	0xbff4e162a692bc49	-1.3050257212414798

weight f8 [1, 4]
0	0xc02323f97e3b4975	-9.57026285623281
1	0xbfcebd7c0c066950	-0.24015760981712697
2	0xbfcb0f5e1f167be0	-0.21140648382149063
3	0x40253c26185e5167	10.617478143227983

bias f8 [1]
0	0x3ff000a712e73852	1.000159334030759
