framework/data/libtorch/test/thermal_conductivity_model.pt (torch, 23526 bytes, 14 tensors)

input_scale f8 [1, 1]
0	0x407ae41fd44f3330	430.2577708333729

input_bias f8 [1, 1]
0	0x4087a04cb4dbd2ea	756.0374543355695

output_scale f8 [1, 1]
0	0x4042743a08a70f3c	36.90802105099871

output_bias f8 [1, 1]
0	0x40508202453a9dbe	66.03138857578503

weight f8 [10, 1]
0	0xbfe1ae8e871168f2	-0.552558196835234
1	0xbfc47c412f6bf835	-0.1600419503737968
2	0x3feade8bf7e585c3	0.8396663514833381
3	0xbfc3670022feda04	-0.15158082684293117
4	0xbfdc44d2323da676	-0.4417005053170223
5	0x3fe1dc1b819235da	0.5581185846983161
6	0xbff0411a0b24a7d4	-1.0158939776688287
7	0xbfc873c56253f1c5	-0.19103305150191666
8	0xbfe44eaaf486c21e	-0.6346030021578064
9	0xbfee8264f35d613e	-0.9534172776430194

bias f8 [10]
0	0xbfd2808a9e99dcb4	-0.28909554947262994
1	0x3fdb9a28d196e72f	0.4312841460010643
2	0x3fe7b508ff16901c	0.7408490163984456
3	0xbfc2916bfaa843a9	-0.14506292094349973
4	0x3fd03f08a8b74a6b	0.253847279321383
5	0xbfbf29718059b82c	-0.12172612556034385
6	0xbfede438eecf0f47	-0.9341091789469623
7	0x3fe7f0c865499fc0	0.748142431094486
8	0x3fb6a7b6157dc035	0.08849657082259983
9	0xbff2452a46e83e7a	-1.1418860215962057

weight f8 [20, 10]
0	0xbf991cc076940eb4	-0.02452374194855507
1	0xbfd00f5fef46177a	-0.2509383999498521
2	0x3fdf807ccdcc1ea7	0.49221725556751966
3	0x3f9158faf1ed8264	0.016940995231723113
4	0x3fb4eb737caf436e	0.08171769899423761
5	0x3fd949eb535fc7fc	0.3951366724205625
6	0xbfd6bc61de038d4e	-0.3552479427437064
7	0x3f95030aa61afaf0	0.020519415272015118
8	0xbfc712cc63655a96	-0.18026118138614738
9	0xbfe0c2856d5ca955	-0.5237452636695631
10	0xbfd338d32e2b53b5	-0.3003433180686515
11	0x3fc2e371cfc29e92	0.14756605762999137
12	0x3fe32edbcb3751be	0.5994700402321127
13	0x3fb0a94fa3414076	0.06508348212924084
14	0xbfda15ad2c81ac8e	-0.40757302614537927
15	0x3fdf38be813d3f7f	0.48783838864346046
16	0xbfb85145e1421043	-0.09499012708153125
17	0xbfc0838bc663affe	-0.1290144652078879
18	0x3fbbe98aa27ca498	0.10903231112446787
19	0xbfe1e6d23a6666b8	-0.5594264164567084
20	0x3fc056a0ca47c18c	0.12764367939918164
21	0x3fce82a9e91dd4db	0.23836254007952715
22	0xbfcf703524ee5a25	-0.24561180403971253
23	0xbfc5004abb69105b	-0.16407140875719758
24	0xbfbd8484f19bef9f	-0.11530333422336846
25	0x3fa8c3ec9ea5bb1c	0.04836978375066378
26	0x3fded41c5d14ed7d	0.48169621553434877
27	0x3fb9de339c2c8e8c	0.10104677737086315
28	0x3fb26a9c45aa130e	0.07193924618520617
29	0x3fdb0b803012e6b3	0.42257694906912063
30	0xbfb3080f1bbdecdc	-0.074341720841335
31	0x3fb6b29884dbcd0d	0.08866265529268365
32	0xbfc6478b787059f7	-0.1740583742218431
33	0x3fd93047891de079	0.39357174291900027
34	0x3fd055b07caeaa25	0.25523006607059734
35	0xbfd18af58e53ac65	-0.2741063966665876
36	0x3fe096870f4d7c59	0.5183749483948176
37	0x3fc01ed81ee15bed	0.12594129093005738
38	0x3fb506d528120012	0.08213550785330906
39	0x3fd70774ed11554f	0.3598301234354339
40	0x3fd0c71e915ac7e4	0.2621532840231551
41	0x3f8f5b4b1c24a9f6	0.015310847088206164
42	0xbfdfb2bd2d107d23	-0.495284360893452
43	0x3fa1cdb6df9f6000	0.03477260093467294
44	0x3fc995ca99699707	0.19988377085535822
45	0xbfae8029c28837bc	-0.059571557041734974
46	0x3fd043fce2ed0da4	0.2541496482919803
47	0xbfaa0f1b46feb25e	-0.05089650384556842
48	0x3fc65db8f9831106	0.17473518546297145
49	0x3fe2868929a51aa4	0.5789228261354151
50	0xbfd4d189b321e11f	-0.32528917783158023
51	0x3fa9c1d118dc11b4	0.050306829723953866
52	0x3fb70c30143412fd	0.09002972119567328
53	0x3fa295438882fc26	0.036295042432805055
54	0xbfd708321693a1e9	-0.3598752232051355
55	0x3fcadd19ecd5052f	0.20987247528140915
56	0xbfe23efc4280288a	-0.5701886462059218
57	0x3fd0c60fb72a9a59	0.2620887078032062
58	0x3f96e391756392f9	0.02235247878060684
59	0xbfd30fa4740309d3	-0.29782973603519486
60	0xbf94d8ec6d5436ac	-0.020358747647199735
61	0xbfc2a825b2cee752	-0.14575644713277797
62	0x3fe103cecf1dd57c	0.5317148251767061
63	0x3fcd1b65acb82a2c	0.22739859517635475
64	0x3fccf05a250273a4	0.22608496481998686
65	0xbfc047cd19d8b387	-0.12719119798694242
66	0xbfba72b80d3d8148	-0.10331297229050052
67	0xbfbec6babb36eb59	-0.12021987028758242
68	0xbfb7819daecc9d74	-0.09182153241692054
69	0xbfe0c186ae500130	-0.5236237911740655
70	0x3fdaa2ce8bffa83d	0.4161869399237082
71	0x3fab8513144ba57b	0.053749653079488056
72	0xbfb7b5d6dd64321a	-0.09261839776099415
73	0xbfbe137dd31b9bf5	-0.11748491672516066
74	0xbfaa74f6f7db7e8c	-0.05167361999133133
75	0xbfd5ccb4ee501696	-0.3406193091653703
76	0x3fd70a2052050cc4	0.3599930573438537
77	0x3fc1023b70bff5cf	0.13288062100757123
78	0x3fc5daebc90a85f4	0.17074343983135487
79	0x3fe1008a8c51f6f0	0.5313160648945239
80	0xbfd2fd7576e3c2ed	-0.29671990022965994
81	0xbfcce9ee77404c52	-0.22588902304468889
82	0x3fbe371f1c6c854f	0.1180285877603826
83	0xbf9a417fc1d96a9b	-0.025640484053250572
84	0xbfc10c4e323465c6	-0.13318803264045992
85	0x3fd738af2318b79a	0.3628347246875535
86	0xbfa99febd6f5ced5	-0.05004822730088924
87	0x3fc5a40aad952542	0.16906865573609237
88	0xbfc8f3e62494a8a4	-0.19494320665518672
89	0xbfe27707b90e9ce0	-0.5770300497432821
90	0xbfaa3c1f3ffb1039	-0.051239944992204696
91	0x3fc982e65dad5e03	0.19930724691469956
92	0xbfe2a59577547cc7	-0.5827128725685718
93	0x3fa48a206b34fcd4	0.04011632260016432
94	0x3fc0b7e59daf8c26	0.1306120891523232
95	0xbfc206c64de31712	-0.1408317451770747
96	0x3fcc39028c9f9d33	0.2204898058546206
97	0x3fc26b4470533217	0.14389853939646066
98	0x3fcad87c823ca1df	0.20973163947316117
99	0x3fbe5b7d9460543f	0.11858353493183048
100	0x3fd55d3656f4850b	0.3338142251178204
101	0x3fa2469bc95e47fc	0.0356949504195114
102	0x3fb1e6aa01e93248	0.06992590471890836
103	0x3fbc43046ab0b2ed	0.11039760212652157
104	0x3fd4555762978427	0.31770882251845695
105	0xbfce518abe64a195	-0.23686346336877465
106	0x3fd973f2c4a96b98	0.3977019234204646
107	0x3fd45e7b50a0a970	0.3182667052630199
108	0xbf97ca66efcc1c07	-0.023233040224138104
109	0x3fbe541e0a0618b7	0.11847102875444447
110	0xbfd2767e66acbdb5	-0.28848228480179766
111	0xbfb2ff09df5093c2	-0.07420407964725853
112	0x3fde0edebeb46e67	0.4696575987197548
113	0x3fce5e685e355bbf	0.23725609397908262
114	0x3fbb1ba21abc13ae	0.10589039948179277
115	0x3fd676132a52826b	0.3509567178062187
116	0xbfe0e698f9f1d1bd	-0.5281491166811559
117	0xbfaec8fffdf565c5	-0.060127258063129164
118	0xbfd68b35ba817450	-0.3522466966003934
119	0xbfb6370e4f02a2a6	-0.08677758625948204
120	0xbfdc9c576a7f46b8	-0.447042325974603
121	0x3f9ea40871f9f265	0.02992261119514907
122	0x3fe7f1dc8695ed70	0.7482741001726207
123	0x3fc3bdd73870b700	0.1542309785449376
124	0x3fa35d4bbf3123fe	0.03782116612325835
125	0x3fc752302eeb2c8a	0.18219568530034663
126	0xbfdd4b0272bbf9f3	-0.45770322041053574
127	0x3fd07152f6b92a43	0.25691675275871634
128	0xbfdbb40a01a6bf97	-0.4328637138487407
129	0xbfe2325f90fa8481	-0.5686490851986862
130	0xbf99510d0cc228e5	-0.02472324743624989
131	0x3fb49306d74a00a6	0.08036844974594945
132	0xbfe033161f052817	-0.5062361341344993
133	0xbf4932e4d05a0923	-0.0007690064673655832
134	0xbfbd33dcb902cdc5	-0.11407260434025719
135	0xbfcb99eb91d86af5	-0.21563477155071778
136	0x3fe0e12621864f38	0.5274840025690315
137	0x3fb20419927f5f9e	0.07037505938148889
138	0x3fbbfdbd6f94a223	0.10934051489005774
139	0x3fdd8c2ebaec7fe1	0.4616810632160178
140	0x3fc8436343a0b5d9	0.1895565109456772
141	0x3fdf2531cee77c4b	0.48664517598621576
142	0x3fb7feec27ae2d35	0.09373355835684978
143	0x3fd61f5100afc96e	0.345661402388166
144	0xbfc414787b9e1057	-0.15687471424110086
145	0x3fdf6ce4ea166974	0.49102137432205173
146	0x3fd4f787ae0ddfd8	0.32760803220253143
147	0x3fdae215aec71431	0.42004911487703384
148	0x3fd2e0e66e97ff5b	0.2949768142716402
149	0x3fc76c1db0c1e3ac	0.1829869378159662
150	0x3f748eeb5ae25b44	0.005019111018689074
151	0xbfc5a462231cc61c	-0.1690790816733604
152	0x3fe553774424ad0c	0.6664387064860491
153	0x3fa0453e7889dc97	0.03177828999917514
154	0xbfd2dcaf4c03dc51	-0.29471952842090327
155	0x3fd159ebe889a313	0.2711133738398967
156	0xbfb650800e40e80f	-0.08716583583819236
157	0x3fcc3749f19f30f8	0.2204372815889497
158	0xbfdee4f44bc04dda	-0.48272426030709215
159	0xbfe62df1ff536190	-0.6931085573988174
160	0x3fdda708ef3ea338	0.4633200012563523
161	0xbfbd56b4a65e8868	-0.11460427343129853
162	0xbfda5dab33be7d7d	-0.41196708729872694
163	0x3fc6a60671109a54	0.17694168587441317
164	0x3fd44d925aef8048	0.31723460083413046
165	0xbfa6cd7799ff3437	-0.04453634028286795
166	0x3fdfcdcb6d9dff1d	0.4969357080917563
167	0xbfc1d78ae346a4ec	-0.13939033601244633
168	0x3f8cba1fc65a31d4	0.014026878586514004
169	0x3fde537a0af96a52	0.47384501525599376
170	0xbfc25dc16d0d0531	-0.14348619293927237
171	0xbfc19612584133c0	-0.13739232358275721
172	0x3fd4e9b7a57553b2	0.3267649761012833
173	0xbfd3632eb952f9c8	-0.30292862031992884
174	0xbfcbe8d4a2a22cde	-0.2180429262265084
175	0x3fdb61de49e6670d	0.42784840790555806
176	0xbfe0bcc69b857a13	-0.5230439221884943
177	0x3fd4abd29873919f	0.32298722160182963
178	0xbfd278ae19bbd9cb	-0.2886157275492251
179	0xbfbde8ecca8d85d5	-0.11683540291917123
180	0x3fa6043f88770517	0.04300116101104317
181	0x3fb5dfa7900fe534	0.08544394747868439
182	0x3fe0c51c35505b24	0.5240613023077896
183	0xbfaf7dc8265793a5	-0.06150651424449131
184	0xbfcffeb995d0b9aa	-0.24996108832551772
185	0x3fd32f9bc36968bd	0.299780789214889
186	0xbfa1dad7186efa05	-0.03487274335155991
187	0xbfd224e466518279	-0.2835017203524682
188	0xbfda3dd54dbb1b83	-0.4100240000811299
189	0xbfdfe2feef9a0747	-0.4982297267780393
190	0x3fdece8dc8abcfb8	0.4813570460967145
191	0x3fad9d030eb9e349	0.05783853106271992
192	0xbf9b3e537a47035d	-0.02660494264432899
193	0xbfb30e1014d13574	-0.07443333156807858
194	0x3fe127adef1e18da	0.5360936804070449
195	0xbfc309cfee596c57	-0.14873694551610825
196	0x3fbec050e6404376	0.1201220094810774
197	0xbf9b2f52d3d8c562	-0.02654771249780675
198	0x3fe0bb305cc7045a	0.5228502094324867
199	0x3fbe94d0f4df56ed	0.11945825556116647

bias f8 [20]
0	0x3fc48b53cee6ccb2	0.1605019340764549
1	0x3fa446d536c60974	0.039602911888340225
2	0x3fc0800926fdcf68	0.1289073410404129
3	0xbfd4d31ff6879bca	-0.32538603854339654
4	0xbfd71475491ab36d	-0.3606236661824401
5	0xbfb5f38dc535c826	-0.08574758591365192
6	0xbf902eefa62b7ffe	-0.01580404712410654
7	0xbfd35ecceb524ca3	-0.3026611612378451
8	0x3fae266a7bf288db	0.058886840467737143
9	0x3fd0764f1a9a7394	0.25722100828152716
10	0x3fc514127b0282d5	0.16467505461061785
11	0x3fba846d66414352	0.1035831808706125
12	0x3fdca7f85af4535f	0.4477520836092505
13	0x3fc349e50ad73755	0.15069258717852088
14	0x3fd1426c84de200d	0.2696791932617096
15	0x3fd6d1e802a35f7a	0.35656166322359406
16	0xbfd8fbf6d20e33fe	-0.3903786708186202
17	0x3fd44dbbdf98a670	0.31724449954581413
18	0x3fdce0c1d0b6164d	0.4512180841632912
19	0x3fddb7f9ec3ff66b	0.4643540198447684

weight f8 [20, 20]
0	0x3fb03dbc77008d2a	0.06344201951337838
1	0x3fbc5d98c2892120	0.11080317258268169
2	0xbfc8a3d2115c3069	-0.19249940726911355
3	0xbfc4c7ccb78f8b63	-0.16234740221906482
4	0xbfcbd3550224774b	-0.21738684277164064
5	0x3fad760a615ddc0c	0.05754120291287998
6	0x3f7464d2c005746c	0.004978965036881094
7	0xbfc17463033e1053	-0.13636434229204272
8	0xbfca1f3d128a54e5	-0.20407832532206452
9	0x3f52ed0389c0d4de	0.0011551413108581913
10	0x3f7c191d796e49d2	0.006859889158379722
11	0xbfbb128dc04141c1	-0.10575185722087267
12	0xbfc63ed84e8e48bb	-0.17379287563068666
13	0xbfc7c85733d82749	-0.18580141097509742
14	0xbfa032d248be1435	-0.03163773668260498
15	0x3fc9012ab765f3eb	0.19534810976975278
16	0xbfc5ed791620cca8	-0.1713096006438708
17	0x3fa714415b724333	0.045076410687335054
18	0xbfb96fe4956ae866	-0.09936360023394428
19	0x3fc12e9357ed0e55	0.13423387330304828
20	0xbfa3bc2d7711cee9	-0.038545056137903995
21	0x3fbdba28c90f617a	0.11612181576436412
22	0x3fbaf2306db06187	0.10525801351503193
23	0xbfcac1c6378dc91e	-0.20903852188673339
24	0x3fb2c4c9b7197d8c	0.07331524582104104
25	0xbfa341d6c1113bbd	-0.03761168581751615
26	0x3f98f4a5aeae2fbe	0.024370754992147907
27	0x3fc3f7d256f1a79c	0.15600041623411876
28	0xbfab8e23e2ad15f2	-0.05381881849329408
29	0x3fb3455748223771	0.07527680884433409
30	0xbfbd307c10ef006c	-0.11402106679361318
31	0x3f86fb7dd53a81e9	0.011221869535177969
32	0xbfb8d45b63306a3a	-0.09699031039819142
33	0xbfb66108098dd2e7	-0.08741808160068452
34	0xbfa5f7d140b35e81	-0.042906321666746024
35	0xbfbe9a6e6d1e7a5b	-0.11954393543280999
36	0xbfaab3f818d33aaa	-0.05215430548706952
37	0xbfbd2381ce5d0f87	-0.11382304466411429
38	0xbfc20d6b46cf7b24	-0.14103451688330282
39	0xbfa2b486bb010226	-0.0365335562969487
40	0xbfb96069dde4798d	-0.09912740390107029
41	0xbfa2a2fdc83a2285	-0.03639977521112762
42	0x3f8cffbae4efc62f	0.014159641372290725
43	0xbf9879060eda3259	-0.02389916864062722
44	0xbfc360b1fc0db78b	-0.1513884049158459
45	0x3fa1c596e234bc7e	0.03471061240485883
46	0x3f9f76dec43d376c	0.030726891257749342
47	0x3fc1cb319a598948	0.13901348148926673
48	0x3fb38b237cf40f75	0.07634183693522607
49	0xbf8dcffdaad45d46	-0.014556867385677418
50	0x3fa776dee7e2df0a	0.04582878666536601
51	0xbfb82e925f576ea7	-0.09446062877344251
52	0x3fabd2d7ff12180a	0.054342985045011075
53	0xbfb8be59a75d0774	-0.09665451370258699
54	0x3f96a8da21bcc7c6	0.022128494557541754
55	0x3fc33d59de41439c	0.1503097853879155
56	0x3f90298dff2c3648	0.015783518504625144
57	0xbfb5ca91de5190fc	-0.08512221982670448
58	0xbfae1688acddd6d0	-0.05876566991984833
59	0x3f9f47dbb7d00fc9	0.03054755505947052
60	0x3fd4614007689964	0.31843567584510013
61	0x3fc326749a068115	0.14961106797000726
62	0x3fb84fc1fc0b5fdb	0.09496700671604634
63	0x3fd0e5ca15d56e01	0.2640252316684553
64	0xbfa61daf90f598d6	-0.04319523472331503
65	0x3fb7bd123b83f986	0.09272874787345672
66	0x3fc68678becfc5d9	0.17597874943707728
67	0xbfa0ef6bf3208244	-0.03307664244517075
68	0x3fcac81a66d21d67	0.20923166294617632
69	0x3fbdada74687cc22	0.11593099090514206
70	0x3fbb99695decea84	0.10780962508298769
71	0x3fc5778fdb924b96	0.1677112409712122
72	0xbfa6da9bfb10f9ee	-0.04463660659574829
73	0xbfb8fa22fd84fd17	-0.09756678285065266
74	0x3fd2bdbe050a107b	0.29283094875450616
75	0x3fc7eba00a28ebd3	0.1868782090767512
76	0x3fa134132fedb36e	0.033600425339364345
77	0x3fb5729e52dd1f6f	0.0837801887802223
78	0x3fbd1ddbfd0c6dce	0.1137368672174752
79	0x3fccf67d372c7436	0.2262722510721759
80	0x3fdec9d1f7004070	0.48106812592687387
81	0x3fd3da7f7f07ea78	0.3102110615288107
82	0x3fd2a67d8dfbab93	0.2914117704919416
83	0xbfa0c52586c50786	-0.03275410909783631
84	0x3fb7b184a2134931	0.09255246121327755
85	0x3fce2c470b4fbfba	0.23572624256439473
86	0x3fd7006305fd3b99	0.3593986090171995
87	0x3fd14b0911203ac0	0.2702047984356959
88	0x3fd8d09f83190deb	0.3877333431484817
89	0x3fd6a7922cb05835	0.3539777218260299
90	0x3fc2824e106275ab	0.1446015911105126
91	0x3fb0e84389277af1	0.0660440645074052
92	0x3fc03d0be92ea931	0.1268629921517657
93	0x3fd2b1b1608898f0	0.29209551264865663
94	0x3fd51a66e3d63437	0.3297364449470623
95	0x3fc01aeb7aab0b5d	0.12582152833609941
96	0x3fca37c4da833ee1	0.20482693357052198
97	0x3fc25ed3ace2b4e5	0.14351888600996357
98	0x3fda06bb06ff64c0	0.4066608017288438
99	0x3fd5680f0184df85	0.3344762339433987
100	0x3fc26be6a4ab38b8	0.143917875675873
101	0x3fb459856e53c86b	0.07949098533188852
102	0xbfc9bf471e1d23c3	-0.20114983530427652
103	0xbfb6bca0fc0c8b99	-0.08881574777164615
104	0xbfcab74126e5bcfc	-0.2087174835137161
105	0x3fa013254414c171	0.03139606910770255
106	0x3fd11495ee3e60d9	0.26688144937498987
107	0xbfab8e7aa9dc921a	-0.05382140468126213
108	0x3fd18510ef6aebd1	0.27374671345358786
109	0xbfa60725635b1675	-0.043023270014185856
110	0xbfcd43cde9ea9831	-0.22863172456453776
111	0x3fd286c1fd7bc874	0.289474961798198
112	0x3fbf766f157f9680	0.1229009082304291
113	0xbfd1b937ff117194	-0.2769298544788168
114	0x3fc006de0a4b7793	0.12520957472491698
115	0x3f9e7cb3e92235ad	0.02977257833895457
116	0xbfd1a959034057e7	-0.2759611636878376
117	0x3fb5e857307c250e	0.08557648595537534
118	0x3fd471cd7455c66e	0.31944595681043253
119	0x3fc469fc64ba4ee2	0.15948443334911305
120	0x3fcfde0665c5a649	0.24896316499079976
121	0x3fcba65a9e58b3ab	0.21601422054064065
122	0xbfc6abf78729f238	-0.17712301349446746
123	0xbfc4d584bbdc76fa	-0.16276606724652948
124	0xbfca57967cab58a6	-0.20579796874398432
125	0x3fd5f1ea6dc54d14	0.34289036483569757
126	0x3fc21ae806339aec	0.14144611647426275
127	0xbfd305b3bc2b857a	-0.2972230279538831
128	0x3fc4aa805e3eca18	0.1614532909566868
129	0xbfc569ffa3f133af	-0.16729732041349396
130	0x3f5ac7ff63c65f2a	0.0016345972099766717
131	0x3fd3ef4a06f35ce8	0.3114800517918881
132	0x3fd4848cb1ec9b50	0.32059018493094005
133	0xbfa4cef1cd404129	-0.04064136152749349
134	0xbfadc2f52047371e	-0.058128032865722754
135	0x3fd0a6d9bc40304e	0.26018374809132616
136	0xbfb9c4dd7778a534	-0.10066017309931824
137	0x3fc237700e9acbf8	0.14231682503813636
138	0x3fd594727b4d6eee	0.33718549767739503
139	0x3fca1f9ba4d44a6d	0.20408959911636107
140	0x3fd37877fb5b12e1	0.30422782465420367
141	0x3fc82c6b4030ad9f	0.18885555872234946
142	0xbfcfa30bccb1aa7d	-0.24716327185463519
143	0xbfbf8349f5a04974	-0.12309705969554391
144	0xbfb975ec24c19c1c	-0.09945560357446975
145	0x3fd1cc5dac0880af	0.2780985050212718
146	0x3fc4e17da1362c5e	0.16313143130932678
147	0xbfd571696562f276	-0.3350471010306032
148	0x3fd09ec6a0992153	0.25969091113485837
149	0x3fb824c86b5f9931	0.09431126233503019
150	0xbfd087ae3ef01d85	-0.2582812895420477
151	0x3fb81ecc72c20f25	0.09421994973859833
152	0x3fbf97d79b044de0	0.12341067823972862
153	0xbf9bd991cc87bc61	-0.02719714938023932
154	0xbf5df87c1ece4d42	-0.0018292629349375288
155	0x3fc91acf45a70bff	0.1961306657886723
156	0xbfc162aa232d4190	-0.13582350461593906
157	0x3fc50a11f3b5e194	0.1643698158257051
158	0x3fb5fd4922b1effc	0.08589608284995615
159	0xbfa3167d006d3d45	-0.03728094701966226
160	0x3fc69c9734536477	0.17665376715629907
161	0x3fb321868a2e4ac6	0.07473030923419363
162	0xbfa160b5436c12cf	-0.03394094894432486
163	0xbfad51a9706508f6	-0.057263655633976215
164	0xbfb7a524eda964db	-0.09236365129744988
165	0x3fafbd848df23636	0.06199278099766696
166	0x3fbc1d9203b89090	0.10982620802730225
167	0xbfb190dfe0347270	-0.06861685966254938
168	0x3fd0c8c317e81fc0	0.2622535451378063
169	0xbfb10b3f3dba3252	-0.0665778661443224
170	0xbfc75696b102dae7	-0.18232997553942384
171	0x3fcf7af65c454f02	0.24594001298338958
172	0x3fcb3123aa50a1b7	0.21243711296234633
173	0xbfca4e25f19c63c1	-0.20550989434630476
174	0xbfae79bbd5091dc8	-0.059522504573176926
175	0xbfb76585f1e94837	-0.09139287143742157
176	0xbfbd131aa41bbd4a	-0.11357275492240607
177	0x3fb636c94e390e76	0.08677347335565763
178	0x3fa0c00bea4522ab	0.03271519884817072
179	0x3fb4fed0c2fbbd1d	0.08201317558608819
180	0x3fd2bb28b80efdb3	0.2926732823798048
181	0x3fb638c53548ddea	0.08680374670881688
182	0xbfd112904775be1a	-0.26675803164013845
183	0x3f7d9ef0f43c0b7b	0.007231656290744288
184	0xbfb3ac2e8f242c28	-0.0768460368600904
185	0x3fd4f80a346e70c1	0.3276391517663449
186	0x3fc4dc55c744501f	0.16297409276796856
187	0xbfa18ea9e8e44abd	-0.03429156272809084
188	0x3fd4bb5a7338de92	0.32393513919985495
189	0x3fa94b5ed938aba6	0.04940315629604379
190	0x3fc136fde0984447	0.13449071375410623
191	0x3fbbf0c653a92f9c	0.1091426805734827
192	0x3fd6462222b54414	0.3480305994935986
193	0xbfcabe34390409e6	-0.2089295652768463
194	0x3fa8411682ad7cce	0.047371581508508606
195	0x3fc16f967a234f0a	0.1362178894402109
196	0xbfd3bf0d3798a4c8	-0.3085358660633344
197	0x3fc42f2af95c1826	0.15768944907921528
198	0xbfb19ee002c26b52	-0.06883049075478923
199	0xbfb2d26b9e7a47cf	-0.07352326029857113
200	0x3fc58c8b2608b3fc	0.16835154873970726
201	0x3fbd7e664f443cdf	0.11520995555132484
202	0xbfa6706d7157af64	-0.0438265038354462
203	0xbfc340ac41352041	-0.15041115936242203
204	0x3fc2b0b15a08144a	0.14601723571846242
205	0x3fa5d23308693269	0.042619318749164865
206	0xbfbc821153276c1e	-0.11135967521788401
207	0xbfc165fda4e53f4b	-0.13592501212633076
208	0xbfb172410c4b1e8c	-0.06814962911732375
209	0xbfb60a1373b435f5	-0.08609124731830049
210	0x3fc6d519ac8ad340	0.17837830471912675
211	0xbfbe49614215a412	-0.11830718863861048
212	0x3fb69bc01980824d	0.08831406233412871
213	0xbfc2e5e8d96c2ed1	-0.14764128319108363
214	0x3fca880b47d589cd	0.20727673537756033
215	0xbfb5ccc822698990	-0.08515597190993263
216	0xbfbb86af90b40026	-0.10752389223853295
217	0xbfc53a250f19eacf	-0.16583693730702584
218	0xbfc75483ce53082e	-0.18226668905669058
219	0xbfa58439128d1176	-0.042024405970127285
220	0x3fb9e139b18e28fb	0.10109291634413246
221	0xbfd383a70dacfb59	-0.30491043410795765
222	0x3fd103f3f4d086a8	0.26586626918479306
223	0x3fc948b825c5db19	0.19753171772364267
224	0x3fd59407dc07a28a	0.3371600769737958
225	0xbfca96228ffaf6c3	-0.2077067568806595
226	0x3fa638fd19dd2e7f	0.04340353909227889
227	0x3fd6b6220d82c834	0.3548665172521652
228	0x3fb3c445750321fd	0.07721361262077404
229	0x3fb11ecfe5f1bed4	0.06687640537142708
230	0x3fcda483dcda1593	0.23158310207160734
231	0xbfcafbb099d489aa	-0.2108059645771168
232	0xbfcf7272903dc487	-0.24568016093283893
233	0x3fd36574c6d86fe3	0.303067392525689
234	0x3fc3b045f0f2c933	0.153816931391313
235	0xbfb2ac0958e40fda	-0.07293756885707073
236	0x3fccacaa0870b2a6	0.22401929294701012
237	0xbfd0f06bb37668d4	-0.2646741154254759
238	0xbfb00868dc437521	-0.06262832047965051
239	0x3fa3b60f8b0a8dfb	0.03849838802605273
240	0xbfcc2405a933fdc8	-0.219849307650277
241	0x3f5baab2b47ff754	0.0016886468092702405
242	0xbfc88265e12f5d33	-0.191479430154439
243	0x3fbe1f35d51b704c	0.11766373112499301
244	0x3fb4c5d95c3161af	0.08114393711856026
245	0xbfc16f5bbf1191ed	-0.13621088819048968
246	0x3fc1d9ef25c2d795	0.139463323057211
247	0xbfc37d1af02a0189	-0.15225540854227074
248	0xbfc6cd306b17f023	-0.1781368754308242
249	0xbfb3da762a975830	-0.07755220928024253
250	0xbfbf26ca8b39aacb	-0.12168565653852707
251	0x3f9b538981becd20	0.026685856384301876
252	0x3fb7e5ab70a773ec	0.09334823131889863
253	0xbfa7cbbb864a0436	-0.04647623075744216
254	0x3faea456b120948e	0.059847554323178107
255	0x3fad214103c87362	0.05689433261088685

bias f8 [20]
0	0x3fb561d6e7ac7dae	0.08352416187380271
1	0xbfc09c276ef1d01e	-0.1297654430123893
2	0xbf802091308ca2a2	-0.007874616903408797
3	0x3fbd3fec22aacb18	0.11425662847868201
4	0x3fd6472fb52a3c17	0.3480948704900028
5	0x3faacf1523444ec0	0.052361164622337864
6	0xbfc8dac3f70ce8e8	-0.19417619288453314
7	0x3fb8567612aaa43b	0.09506929355360764
8	0x3fbc14fa6b7ecda9	0.1096951019706497
9	0x3f7e2f01fcef4395	0.007369048848844613
10	0x3fc3e1fc3be50500	0.15533402370969185
11	0x3fb7cd5122b9390f	0.09297663781874042
12	0xbfb8058f26c5aead	-0.09383482643687087
13	0x3fc3b40660ed3301	0.15393142445318378
14	0xbfc3fba67700ccde	-0.1561172562665893
15	0x3fc5b3508981df3e	0.1695347472593713
16	0x3fce8c456a4962d3	0.23865573587206387
17	0xbf9f5c091ab491c4	-0.030624525313344156
18	0x3fc5bdf3efdfa53a	0.16985940182284215
19	0xbfa0a53574579a30	-0.03251044316475704

weight f8 [10, 20]
0	0xbfc2223ff2fa0408	-0.14167022098629922
1	0x3fae71c86e2c6c4a	0.059461844872395433
2	0x3fb1c8960b1ab914	0.06946695109465778
3	0xbfc681841d1f1624	-0.17582751676506903
4	0x3faaa8afe4569cea	0.05206823026974823
5	0x3fd9983ff92d1e93	0.399917596183948
6	0x3fd21e417615c2ae	0.2830966618703695
7	0x3fd99b30676a2d5b	0.40009698962304235
8	0x3fc49f7c7842beea	0.1611171328745436
9	0x3fd313e6f04d49f5	0.29808972804053663
10	0x3fc92d57cd5e2d8e	0.1966962578556885
11	0xbfc915afb78073d3	-0.1959743162159656
12	0x3f90eecc3e1e6422	0.016535941401887418
13	0xbfe3e8798d527f74	-0.6221282730293596
14	0x3fc1ac0507708997	0.1380621229482812
15	0xbfa79ed00d39bf56	-0.046133519758653804
16	0xbfd8749e95656c64	-0.38211788739653785
17	0xbfd1542cf7742d4d	-0.2707626740018057
18	0x3fc10e0c10a7aa3a	0.13324118436078597
19	0x3fb0504f11628272	0.06372541593965211
20	0xbfbb85635512a820	-0.10750408961271818
21	0x3f9132596ebea226	0.016793630012815218
22	0xbfcc877684e9aa5d	-0.22288400163536695
23	0xbfc8d19306b93ef4	-0.19389570072461704
24	0xbfc2db1c1769f32f	-0.14731169837241384
25	0x3fc24cae622406a6	0.14296512405421885
26	0x3f9190ba1ade7bcd	0.017153652086218153
27	0x3fa14ba2b4de2f86	0.033780178621866816
28	0x3f8a328b14c0f144	0.012791716166355223
29	0x3fca26be88497e28	0.20430738119738234
30	0x3fb692f6da149735	0.08817999672154715
31	0x3fa4241adbcf3088	0.03933795865268147
32	0xbfcbbe3bebae58be	-0.21674298293937072
33	0xbfc614248a67bd54	-0.17248970754688264
34	0x3fcc38e028e19e48	0.22048570629270814
35	0x3fa64e1073ca7331	0.0435643330904213
36	0x3f9ac09ed1e145f7	0.026125413475090977
37	0xbfb037c7594dab71	-0.06335111551531526
38	0x3fc6c38ddc16f757	0.1778428387314601
39	0xbf9d7435dbeae746	-0.028763619945244366
40	0x3fb9d84ec64a7b22	0.10095684376799999
41	0xbfb3e0b2c573fd8f	-0.07764737434989953
42	0x3fa9d248ae7015aa	0.0504324639260106
43	0xbfa0bcf6acf5195e	-0.03269167767807589
44	0xbfb06f6bb0b12501	-0.06420014442223378
45	0x3fa0cbb4113f44cf	0.03280413351570532
46	0x3f8edbe0634dde50	0.015067818670771477
47	0xbfc234db177ff370	-0.1422380318398626
48	0x3fbebacded13abc0	0.12003790891655708
49	0x3f9b750eaf0b9098	0.026813725885305034
50	0xbfc91790c6d4f7c4	-0.19603166302289143
51	0x3f764ddaf02c0cb2	0.00544534228061193
52	0xbfb69ece1a03da50	-0.08836067328579955
53	0x3fba6f9ed13ceecf	0.10326569183683464
54	0xbfc705b1a74af049	-0.179861265836623
55	0x3f79dd937126cf60	0.006314826913172172
56	0xbfbe1d67a018283f	-0.1176361814360982
57	0xbfa73597435ba56f	-0.04533074090233923
58	0x3fa1ac0f011926ec	0.03451582802206396
59	0xbfb06c964b226561	-0.06415690740904757
60	0xbfa586288796d2fc	-0.04203917174473834
61	0x3fc85379a0ff4cf4	0.1900474582786057
62	0xbfc83f0f1ddd156e	-0.18942440946754452
63	0x3fd090bfe3e69478	0.25883481269767783
64	0x3fc4973dbf89cdb6	0.16086551525550669
65	0x3fdaaffc5b45ab00	0.4169913188294885
66	0x3fd7e9c37f544dea	0.3736428016138392
67	0x3fd79bdb9c4e07e0	0.36888780845776914
68	0x3fd0e6cd7194faac	0.2640870675276499
69	0x3fd9f02c9f25258c	0.4052840761329086
70	0xbfbbe21dee3f6eab	-0.10891902033420801
71	0xbfcbb040e531e607	-0.21631632987173097
72	0x3fb403dfa9571968	0.07818410763056749
73	0xbfd3c21305979444	-0.3087203554735576
74	0xbfc542cdf50ffd89	-0.16610121217670962
75	0xbfa990a35b7bb4e6	-0.049931626241098745
76	0xbfb8714f9eb0296b	-0.09547898887845967
77	0xbfe66e716431dbea	-0.7009818036011641
78	0x3fa09cfda2da1a1f	0.032447744492902546
79	0xbfb562057d161d9a	-0.08352693847529338
80	0xbfa3751b54f7f3a9	-0.038002828714503174
81	0x3fa2f71092ba4ec3	0.037041204367736856
82	0x3fa1dbc56046b1c5	0.03487984466787312
83	0x3fa044dd6d4b202e	0.031775397864805974
84	0x3fb37b2954830b6a	0.07609804452208171
85	0x3fae825d2eff0994	0.05958834837612695
86	0x3fd9dfee60f2fce1	0.40429267375652783
87	0x3fd316f7e7726bba	0.2982768783783133
88	0x3fc5d5f591389827	0.17059201804039612
89	0x3fd78380101c77c3	0.3674011380516015
90	0x3fcbc333c7f84826	0.21689460052636028
91	0xbfd223f9c404fb9d	-0.28344577925229847
92	0x3fc5c42827a523f5	0.17004873214526098
93	0xbfd39b1972f6c4e5	-0.30634151675174187
94	0x3fc139a7aec5da62	0.1345719912894366
95	0x3fcde9d847273865	0.23369887804296066
96	0xbfd85f27a8f97aaf	-0.38080779553812766
97	0xbfe467481335b3b8	-0.6376076102438821
98	0x3fd09693b6ad297f	0.25919049109929654
99	0xbfc82e5e194f56c9	-0.18891502605281676
100	0x3fada3a74bc69fd9	0.057889202117905554
101	0xbfcadbe2113f8b87	-0.2098352989406431
102	0xbfb4a3d786dd0390	-0.08062502901613144
103	0x3fca0e77acc677e6	0.2035665124539598
104	0x3fcf7e931eace9bd	0.24605025289367957
105	0xbfd97221809606de	-0.3975909953806943
106	0xbfd5d6d5c9ce125a	-0.34123749454037056
107	0xbfc3f34bac91708f	-0.15586229253938597
108	0xbfd3bfbab863f849	-0.30857723242650487
109	0x3fa681ad90eccf28	0.04395811456779902
110	0xbfb63eb234a50470	-0.08689416680592088
111	0x3fd6d6c5e9e6493e	0.35685870973351885
112	0xbfc864e6d34b59fa	-0.19057927434069183
113	0x3fd1bb762861dc86	0.27706674522000474
114	0xbfa9f3138bab30c1	-0.05068265037479725
115	0x3fd27eeb09f0d434	0.28899646731162254
116	0x3fe139fb35bdbe8c	0.5383277940399736
117	0x3fd7c68289df6246	0.37149108375664175
118	0x3fcae017562c4625	0.20996371944106432
119	0x3fbe32848887b981	0.11795833905464372
120	0x3fc98b30815ce7d6	0.19956022564457382
121	0x3fc8ba20e03cef3d	0.19318018864748324
122	0xbfbf2809db62a4eb	-0.12170468908393033
123	0x3f91e4a2f5e51112	0.01747374177763656
124	0x3fc4b81171a7ee1a	0.16186731385811087
125	0x3f9933cd6ec1f2ef	0.024611673245533202
126	0x3fdc363b5aeec415	0.44081004982132416
127	0x3fcdf830cc1d67d6	0.23413667646928954
128	0x3fd3345d258875ac	0.30007103600822904
129	0x3fd417a87984fcba	0.31394397608887525
130	0xbf855a7266ddd894	-0.010426419986952852
131	0xbfce5cb793cdd346	-0.23720450131409104
132	0xbf6dba85b3e58373	-0.003628979814650207
133	0xbfd1bf608cb0414c	-0.2773057340537164
134	0xbfcbdf7014d7eceb	-0.21775628106829656
135	0x3fb9b91915e2c23e	0.10048062118836129
136	0xbfd14d9c53a4594d	-0.2703619782272611
137	0xbfe2b16e81cacd34	-0.5841591391567023
138	0x3fccfaed64afad2c	0.22640769401855587
139	0xbfcae6088097222f	-0.21014505652262147
140	0x3fc1dd1785c73360	0.1395596888745798
141	0x3fc25e8b489647c5	0.1435102562359686
142	0x3fa5a898e6b9440b	0.04230192009402608
143	0x3fd23fc829730c66	0.2851429371623396
144	0xbfbb4b4a18a4835d	-0.10661757566096015
145	0x3fd937c81012dc7e	0.3940296322793485
146	0x3fd8bc92da65c489	0.3865096218860989
147	0xbf403cb437069965	-0.0004955177264960696
148	0xbf9a8e038effe442	-0.025932365038873202
149	0x3fda1324a1bc8c64	0.40741840166646726
150	0xbfa40ed0fead8619	-0.03917554005489538
151	0xbfd6a34c5cc24ddd	-0.353716936669313
152	0x3fc48a9d5a504116	0.16048018369520695
153	0xbfaf711641397e36	-0.06140965982626449
154	0x3fbc26ea823efa7d	0.1099688117965147
155	0x3fc475c210282147	0.15984369076637447
156	0xbfd692c5ac5c121d	-0.3527082617950173
157	0xbfeb522f446bda3a	-0.8537823044160355
158	0x3fcf0bb36f76633d	0.24254458372595336
159	0x3f42a8381a893d5b	0.0005693696921954915
160	0x3fc4789f914dea22	0.15993113131465103
161	0xbfb65a9294f626cb	-0.08731952797657098
162	0xbfcc92a7030233ca	-0.2232254757585948
163	0xbfb094860af15492	-0.06476629035144502
164	0xbfc475f0ad6d8baf	-0.15984924762878225
165	0x3fc17ebd3a30add6	0.13668027249637643
166	0x3fc938c5c560d74e	0.19704506051646792
167	0x3fc234370e5696ba	0.14221847725018738
168	0xbfa64b4d5c2ace1d	-0.04354326009834273
169	0xbfa5f95341223f9e	-0.042917825413609764
170	0x3fc6540eef846722	0.17444025702644078
171	0x3fbab6da545d8f24	0.10435261306480165
172	0xbfb915fea5ca349b	-0.09799186275104647
173	0xbfca9570ba6e99f5	-0.2076855573952369
174	0x3fb0c61ae370bd90	0.06552284291023214
175	0xbfbcae6c2545a2a1	-0.11203647527657747
176	0xbfc22e5cdd57ac11	-0.14203987891900785
177	0x3fb9c5fb418aad29	0.10067720747126842
178	0xbfc583ea2c9d4ccb	-0.1680882184833535
179	0x3fbb4a9a8d84dd89	0.10660711245588152
180	0x3fbbfd7c0c624e55	0.10933661749214114
181	0x3fc6e63bc7c551e3	0.17890116934235242
182	0xbfc8c79b43d92120	-0.1935915070810177
183	0xbfc3e314303d8bbf	-0.15536739688385912
184	0xbfc94fd718e16e09	-0.19774903025505378
185	0x3f9aa6f649099170	0.02602753468308222
186	0x3fc48eddfdd89434	0.16060995955300117
187	0xbfc8c8ac2b087a1c	-0.19362403966165764
188	0x3f8b2ef2cdd4cdd4	0.01327314081809209
189	0xbfb324875fd45b57	-0.0747761353453432
190	0x3fc0063ad59a5165	0.12519011907410085
191	0x3fb2cdea69219168	0.07345452372243744
192	0x3fbd9076cc8cbc5e	0.11548559659853327
193	0x3fbafff2b10df7dd	0.10546795675870109
194	0x3f92deea0c5ab791	0.018428475383806712
195	0xbfc374110fa47347	-0.15197957290447503
196	0x3f9567ddb20bcbb8	0.020904029838628907
197	0x3faac70cbe1e8de2	0.052299879272393004
198	0xbfc3e4af793dbae9	-0.15541642589547358
199	0x3fb02b7f61b9f8e5	0.06316372047328718

bias f8 [10]
0	0xbfca0d50bb7b47c6	-0.20353135256169547
1	0xbfc46cbefc12f436	-0.15956866558363608
2	0xbfbd6922e6ac8a43	-0.1148855031174572
3	0x3fb76648f6b68c6f	0.09140449546116412
4	0xbfb7c224f68c6774	-0.09280615824937205
5	0x3f9dae6272b64fba	0.02898553681514191
6	0xbfbfc47b0544e618	-0.12409180525437369
7	0x3fc9c23b63d66a66	0.20123998999482068
8	0x3fb9c73526c1fad8	0.10069591709359871
9	0x3fc8dd4c1705f046	0.19425345539264266

weight f8 [1, 10]
0	0x3fe742db7e5f71fb	0.7269113033503908
1	0x3fc64d89d9ccb725	0.17424128660916796
2	0xbf95445f8db6ea79	-0.020768635773246367
3	0xbfd58a9797e2e715	-0.3365839942231202
4	0xbfd79c878ec84c94	-0.3689288038596683
5	0x3fe019aba1fa9395	0.5031335986756057
6	0xbfd4d481f7cca5a8	-0.3254704399028818
7	0xbfd92c868dc7ee9a	-0.39334262700843114
8	0x3fba7ea3879dcb91	0.10349485455462416
9	0xbfc5cd0337d2e518	-0.17031898713848004

bias f8 [1]
0	0x3fd4ed451ccd3405	0.326981809736765
