test/tests/materials/torchscript_material/my_net.pt (torch, 7644 bytes, 4 tensors)

weight f8 [5, 3]
000000 00 00 00 20 01 40 dc 3f 00 00 00 a0 4c ab de 3f
       0.4414065182209015 0.47920528054237366
000010 00 00 00 40 1c 50 c1 bf 00 00 00 80 b6 f8 e0 3f
       -0.1352572739124298 0.5303604602813721
000020 00 00 00 c0 22 31 c0 bf 00 00 00 40 33 d3 bd 3f
       -0.1264995038509369 0.11650390923023224
000030 00 00 00 a0 4f fd d1 bf 00 00 00 60 49 b3 d5 3f
       -0.28108587861061096 0.3390677869319916
000040 00 00 00 80 64 49 e0 3f 00 00 00 20 9d 1b db bf
       0.5089590549468994 -0.42356041073799133
000050 00 00 00 20 ff 0e e0 3f 00 00 00 c0 96 a9 bb 3f
       0.5018306374549866 0.10805647075176239
000060 00 00 00 a0 9e 4c db 3f 00 00 00 40 51 04 b4 3f
       0.42655149102211 0.078190878033638
000070 00 00 00 40 2a d1 d1 3f
       0.27839142084121704

bias f8 [5]
000000 00 00 00 a0 46 de b4 bf 00 00 00 a0 0b 7c dc 3f
       -0.08151666074991226 0.44507113099098206
000010 00 00 00 e0 ad d8 b5 3f 00 00 00 60 fb 3f d1 bf
       0.08533751219511032 -0.26953014731407166
000020 00 00 00 a0 52 d6 c2 3f
       0.14716561138629913

weight f8 [1, 5]
000000 00 00 00 40 c5 5f ca bf 00 00 00 40 34 da aa bf
       -0.2060476839542389 -0.05244601517915726
000010 00 00 00 c0 f6 3f c7 bf 00 00 00 e0 9d fc d2 3f
       -0.18163952231407166 0.29666849970817566
000020 00 00 00 e0 d4 97 d6 bf
       -0.35301706194877625

bias f8 [1]
000000 00 00 00 00 c8 63 ca bf
       -0.20617008209228516
